node {
  name: "global_step/Initializer/zeros"
  op: "Const"
  attr {
    key: "_class"
    value {
      list {
        s: "loc:@global_step"
      }
    }
  }
  attr {
    key: "_output_shapes"
    value {
      list {
        shape {
        }
      }
    }
  }
  attr {
    key: "dtype"
    value {
      type: DT_INT64
    }
  }
  attr {
    key: "value"
    value {
      tensor {
        dtype: DT_INT64
        tensor_shape {
        }
        int64_val: 0
      }
    }
  }
}
node {
  name: "global_step"
  op: "VariableV2"
  attr {
    key: "_class"
    value {
      list {
        s: "loc:@global_step"
      }
    }
  }
  attr {
    key: "_output_shapes"
    value {
      list {
        shape {
        }
      }
    }
  }
  attr {
    key: "container"
    value {
      s: ""
    }
  }
  attr {
    key: "dtype"
    value {
      type: DT_INT64
    }
  }
  attr {
    key: "shape"
    value {
      shape {
      }
    }
  }
  attr {
    key: "shared_name"
    value {
      s: ""
    }
  }
}
node {
  name: "global_step/Assign"
  op: "Assign"
  input: "global_step"
  input: "global_step/Initializer/zeros"
  attr {
    key: "T"
    value {
      type: DT_INT64
    }
  }
  attr {
    key: "_class"
    value {
      list {
        s: "loc:@global_step"
      }
    }
  }
  attr {
    key: "_output_shapes"
    value {
      list {
        shape {
        }
      }
    }
  }
  attr {
    key: "use_locking"
    value {
      b: true
    }
  }
  attr {
    key: "validate_shape"
    value {
      b: true
    }
  }
}
node {
  name: "global_step/read"
  op: "Identity"
  input: "global_step"
  attr {
    key: "T"
    value {
      type: DT_INT64
    }
  }
  attr {
    key: "_class"
    value {
      list {
        s: "loc:@global_step"
      }
    }
  }
  attr {
    key: "_output_shapes"
    value {
      list {
        shape {
        }
      }
    }
  }
}
node {
  name: "global_step/IsVariableInitialized"
  op: "IsVariableInitialized"
  input: "global_step"
  attr {
    key: "_class"
    value {
      list {
        s: "loc:@global_step"
      }
    }
  }
  attr {
    key: "_output_shapes"
    value {
      list {
        shape {
        }
      }
    }
  }
  attr {
    key: "dtype"
    value {
      type: DT_INT64
    }
  }
}
node {
  name: "global_step/cond/Switch"
  op: "Switch"
  input: "global_step/IsVariableInitialized"
  input: "global_step/IsVariableInitialized"
  attr {
    key: "T"
    value {
      type: DT_BOOL
    }
  }
  attr {
    key: "_output_shapes"
    value {
      list {
        shape {
        }
        shape {
        }
      }
    }
  }
}
node {
  name: "global_step/cond/switch_t"
  op: "Identity"
  input: "global_step/cond/Switch:1"
  attr {
    key: "T"
    value {
      type: DT_BOOL
    }
  }
  attr {
    key: "_output_shapes"
    value {
      list {
        shape {
        }
      }
    }
  }
}
node {
  name: "global_step/cond/switch_f"
  op: "Identity"
  input: "global_step/cond/Switch"
  attr {
    key: "T"
    value {
      type: DT_BOOL
    }
  }
  attr {
    key: "_output_shapes"
    value {
      list {
        shape {
        }
      }
    }
  }
}
node {
  name: "global_step/cond/pred_id"
  op: "Identity"
  input: "global_step/IsVariableInitialized"
  attr {
    key: "T"
    value {
      type: DT_BOOL
    }
  }
  attr {
    key: "_output_shapes"
    value {
      list {
        shape {
        }
      }
    }
  }
}
node {
  name: "global_step/cond/read"
  op: "Identity"
  input: "global_step/cond/read/Switch:1"
  attr {
    key: "T"
    value {
      type: DT_INT64
    }
  }
  attr {
    key: "_output_shapes"
    value {
      list {
        shape {
        }
      }
    }
  }
}
node {
  name: "global_step/cond/read/Switch"
  op: "RefSwitch"
  input: "global_step"
  input: "global_step/cond/pred_id"
  attr {
    key: "T"
    value {
      type: DT_INT64
    }
  }
  attr {
    key: "_class"
    value {
      list {
        s: "loc:@global_step"
      }
    }
  }
  attr {
    key: "_output_shapes"
    value {
      list {
        shape {
        }
        shape {
        }
      }
    }
  }
}
node {
  name: "global_step/cond/Switch_1"
  op: "Switch"
  input: "global_step/Initializer/zeros"
  input: "global_step/cond/pred_id"
  attr {
    key: "T"
    value {
      type: DT_INT64
    }
  }
  attr {
    key: "_class"
    value {
      list {
        s: "loc:@global_step"
      }
    }
  }
  attr {
    key: "_output_shapes"
    value {
      list {
        shape {
        }
        shape {
        }
      }
    }
  }
}
node {
  name: "global_step/cond/Merge"
  op: "Merge"
  input: "global_step/cond/Switch_1"
  input: "global_step/cond/read"
  attr {
    key: "N"
    value {
      i: 2
    }
  }
  attr {
    key: "T"
    value {
      type: DT_INT64
    }
  }
  attr {
    key: "_output_shapes"
    value {
      list {
        shape {
        }
        shape {
        }
      }
    }
  }
}
node {
  name: "global_step/add/y"
  op: "Const"
  attr {
    key: "_output_shapes"
    value {
      list {
        shape {
        }
      }
    }
  }
  attr {
    key: "dtype"
    value {
      type: DT_INT64
    }
  }
  attr {
    key: "value"
    value {
      tensor {
        dtype: DT_INT64
        tensor_shape {
        }
        int64_val: 0
      }
    }
  }
}
node {
  name: "global_step/add"
  op: "AddV2"
  input: "global_step/cond/Merge"
  input: "global_step/add/y"
  attr {
    key: "T"
    value {
      type: DT_INT64
    }
  }
  attr {
    key: "_output_shapes"
    value {
      list {
        shape {
        }
      }
    }
  }
}
node {
  name: "normalize_element/component_0"
  op: "Const"
  device: "/device:CPU:0"
  attr {
    key: "_output_shapes"
    value {
      list {
        shape {
          dim {
            size: 334
          }
        }
      }
    }
  }
  attr {
    key: "dtype"
    value {
      type: DT_STRING
    }
  }
  attr {
    key: "value"
    value {
      tensor {
        dtype: DT_STRING
        tensor_shape {
          dim {
            size: 334
          }
        }
        string_val: "/workspace/tao-experiments/data/images/train/Mekong_1191208.png"
        string_val: "/workspace/tao-experiments/data/images/train/Paraguay_59731.png"
        string_val: "/workspace/tao-experiments/data/images/train/India_391908.png"
        string_val: "/workspace/tao-experiments/data/images/train/India_285297.png"
        string_val: "/workspace/tao-experiments/data/images/train/Sri-Lanka_1038087.png"
        string_val: "/workspace/tao-experiments/data/images/train/Paraguay_247656.png"
        string_val: "/workspace/tao-experiments/data/images/train/Ghana_495107.png"
        string_val: "/workspace/tao-experiments/data/images/train/Mekong_1149855.png"
        string_val: "/workspace/tao-experiments/data/images/train/India_981708.png"
        string_val: "/workspace/tao-experiments/data/images/train/Sri-Lanka_450918.png"
        string_val: "/workspace/tao-experiments/data/images/train/India_56450.png"
        string_val: "/workspace/tao-experiments/data/images/train/Paraguay_284928.png"
        string_val: "/workspace/tao-experiments/data/images/train/Spain_5650136.png"
        string_val: "/workspace/tao-experiments/data/images/train/Ghana_362274.png"
        string_val: "/workspace/tao-experiments/data/images/train/India_631692.png"
        string_val: "/workspace/tao-experiments/data/images/train/Paraguay_252217.png"
        string_val: "/workspace/tao-experiments/data/images/train/Ghana_83200.png"
        string_val: "/workspace/tao-experiments/data/images/train/Sri-Lanka_49764.png"
        string_val: "/workspace/tao-experiments/data/images/train/Paraguay_205585.png"
        string_val: "/workspace/tao-experiments/data/images/train/USA_770353.png"
        string_val: "/workspace/tao-experiments/data/images/train/India_842775.png"
        string_val: "/workspace/tao-experiments/data/images/train/USA_170264.png"
        string_val: "/workspace/tao-experiments/data/images/train/Somalia_166342.png"
        string_val: "/workspace/tao-experiments/data/images/train/Paraguay_989230.png"
        string_val: "/workspace/tao-experiments/data/images/train/Paraguay_36015.png"
        string_val: "/workspace/tao-experiments/data/images/train/Paraguay_795075.png"
        string_val: "/workspace/tao-experiments/data/images/train/USA_84195.png"
        string_val: "/workspace/tao-experiments/data/images/train/USA_670826.png"
        string_val: "/workspace/tao-experiments/data/images/train/Ghana_128663.png"
        string_val: "/workspace/tao-experiments/data/images/train/Paraguay_581976.png"
        string_val: "/workspace/tao-experiments/data/images/train/Spain_7558720.png"
        string_val: "/workspace/tao-experiments/data/images/train/India_533192.png"
        string_val: "/workspace/tao-experiments/data/images/train/Sri-Lanka_377277.png"
        string_val: "/workspace/tao-experiments/data/images/train/India_136196.png"
        string_val: "/workspace/tao-experiments/data/images/train/Pakistan_667363.png"
        string_val: "/workspace/tao-experiments/data/images/train/Spain_8199661.png"
        string_val: "/workspace/tao-experiments/data/images/train/India_1018327.png"
        string_val: "/workspace/tao-experiments/data/images/train/Ghana_132163.png"
        string_val: "/workspace/tao-experiments/data/images/train/Spain_7856615.png"
        string_val: "/workspace/tao-experiments/data/images/train/Ghana_1078550.png"
        string_val: "/workspace/tao-experiments/data/images/train/USA_605492.png"
        string_val: "/workspace/tao-experiments/data/images/train/Bolivia_312675.png"
        string_val: "/workspace/tao-experiments/data/images/train/Paraguay_191503.png"
        string_val: "/workspace/tao-experiments/data/images/train/USA_438959.png"
        string_val: "/workspace/tao-experiments/data/images/train/USA_905409.png"
        string_val: "/workspace/tao-experiments/data/images/train/USA_741178.png"
        string_val: "/workspace/tao-experiments/data/images/train/Ghana_194723.png"
        string_val: "/workspace/tao-experiments/data/images/train/Ghana_49890.png"
        string_val: "/workspace/tao-experiments/data/images/train/USA_224165.png"
        string_val: "/workspace/tao-experiments/data/images/train/Nigeria_952958.png"
        string_val: "/workspace/tao-experiments/data/images/train/Pakistan_211386.png"
        string_val: "/workspace/tao-experiments/data/images/train/Sri-Lanka_236628.png"
        string_val: "/workspace/tao-experiments/data/images/train/Paraguay_892933.png"
        string_val: "/workspace/tao-experiments/data/images/train/Sri-Lanka_748447.png"
        string_val: "/workspace/tao-experiments/data/images/train/USA_58086.png"
        string_val: "/workspace/tao-experiments/data/images/train/Ghana_144050.png"
        string_val: "/workspace/tao-experiments/data/images/train/India_25540.png"
        string_val: "/workspace/tao-experiments/data/images/train/India_707886.png"
        string_val: "/workspace/tao-experiments/data/images/train/Ghana_135389.png"
        string_val: "/workspace/tao-experiments/data/images/train/Spain_8565131.png"
        string_val: "/workspace/tao-experiments/data/images/train/Bolivia_103757.png"
        string_val: "/workspace/tao-experiments/data/images/train/Mekong_1396181.png"
        string_val: "/workspace/tao-experiments/data/images/train/Bolivia_432776.png"
        string_val: "/workspace/tao-experiments/data/images/train/Pakistan_1036366.png"
        string_val: "/workspace/tao-experiments/data/images/train/Spain_337094.png"
        string_val: "/workspace/tao-experiments/data/images/train/Sri-Lanka_152185.png"
        string_val: "/workspace/tao-experiments/data/images/train/Paraguay_224845.png"
        string_val: "/workspace/tao-experiments/data/images/train/Nigeria_22088.png"
        string_val: "/workspace/tao-experiments/data/images/train/India_900498.png"
        string_val: "/workspace/tao-experiments/data/images/train/Bolivia_195474.png"
        string_val: "/workspace/tao-experiments/data/images/train/USA_347609.png"
        string_val: "/workspace/tao-experiments/data/images/train/Bolivia_76104.png"
        string_val: "/workspace/tao-experiments/data/images/train/Spain_6095801.png"
        string_val: "/workspace/tao-experiments/data/images/train/India_118868.png"
        string_val: "/workspace/tao-experiments/data/images/train/USA_366607.png"
        string_val: "/workspace/tao-experiments/data/images/train/Paraguay_12870.png"
        string_val: "/workspace/tao-experiments/data/images/train/Paraguay_482517.png"
        string_val: "/workspace/tao-experiments/data/images/train/USA_788696.png"
        string_val: "/workspace/tao-experiments/data/images/train/Nigeria_78061.png"
        string_val: "/workspace/tao-experiments/data/images/train/Ghana_895194.png"
        string_val: "/workspace/tao-experiments/data/images/train/Somalia_626316.png"
        string_val: "/workspace/tao-experiments/data/images/train/Somalia_322855.png"
        string_val: "/workspace/tao-experiments/data/images/train/USA_655230.png"
        string_val: "/workspace/tao-experiments/data/images/train/Paraguay_1056717.png"
        string_val: "/workspace/tao-experiments/data/images/train/Paraguay_62897.png"
        string_val: "/workspace/tao-experiments/data/images/train/USA_211406.png"
        string_val: "/workspace/tao-experiments/data/images/train/USA_646878.png"
        string_val: "/workspace/tao-experiments/data/images/train/Ghana_5079.png"
        string_val: "/workspace/tao-experiments/data/images/train/USA_231124.png"
        string_val: "/workspace/tao-experiments/data/images/train/Somalia_649376.png"
        string_val: "/workspace/tao-experiments/data/images/train/Pakistan_401863.png"
        string_val: "/workspace/tao-experiments/data/images/train/Paraguay_148318.png"
        string_val: "/workspace/tao-experiments/data/images/train/Ghana_147015.png"
        string_val: "/workspace/tao-experiments/data/images/train/Spain_7604243.png"
        string_val: "/workspace/tao-experiments/data/images/train/USA_527077.png"
        string_val: "/workspace/tao-experiments/data/images/train/USA_179917.png"
        string_val: "/workspace/tao-experiments/data/images/train/Nigeria_143329.png"
        string_val: "/workspace/tao-experiments/data/images/train/Mekong_221789.png"
        string_val: "/workspace/tao-experiments/data/images/train/India_764946.png"
        string_val: "/workspace/tao-experiments/data/images/train/Paraguay_280900.png"
        string_val: "/workspace/tao-experiments/data/images/train/Spain_6860600.png"
        string_val: "/workspace/tao-experiments/data/images/train/Sri-Lanka_178753.png"
        string_val: "/workspace/tao-experiments/data/images/train/Ghana_868803.png"
        string_val: "/workspace/tao-experiments/data/images/train/Ghana_264787.png"
        string_val: "/workspace/tao-experiments/data/images/train/Mekong_98310.png"
        string_val: "/workspace/tao-experiments/data/images/train/India_664410.png"
        string_val: "/workspace/tao-experiments/data/images/train/Bolivia_360519.png"
        string_val: "/workspace/tao-experiments/data/images/train/Sri-Lanka_1049830.png"
        string_val: "/workspace/tao-experiments/data/images/train/India_1017769.png"
        string_val: "/workspace/tao-experiments/data/images/train/Sri-Lanka_847275.png"
        string_val: "/workspace/tao-experiments/data/images/train/USA_638521.png"
        string_val: "/workspace/tao-experiments/data/images/train/Paraguay_76868.png"
        string_val: "/workspace/tao-experiments/data/images/train/Ghana_146222.png"
        string_val: "/workspace/tao-experiments/data/images/train/India_500266.png"
        string_val: "/workspace/tao-experiments/data/images/train/USA_67102.png"
        string_val: "/workspace/tao-experiments/data/images/train/India_773682.png"
        string_val: "/workspace/tao-experiments/data/images/train/Paraguay_198534.png"
        string_val: "/workspace/tao-experiments/data/images/train/Spain_5816638.png"
        string_val: "/workspace/tao-experiments/data/images/train/Paraguay_7894.png"
        string_val: "/workspace/tao-experiments/data/images/train/Sri-Lanka_63307.png"
        string_val: "/workspace/tao-experiments/data/images/train/India_534470.png"
        string_val: "/workspace/tao-experiments/data/images/train/India_747970.png"
        string_val: "/workspace/tao-experiments/data/images/train/Bolivia_233925.png"
        string_val: "/workspace/tao-experiments/data/images/train/USA_1039203.png"
        string_val: "/workspace/tao-experiments/data/images/train/Mekong_774566.png"
        string_val: "/workspace/tao-experiments/data/images/train/Sri-Lanka_400518.png"
        string_val: "/workspace/tao-experiments/data/images/train/India_591549.png"
        string_val: "/workspace/tao-experiments/data/images/train/Paraguay_246154.png"
        string_val: "/workspace/tao-experiments/data/images/train/India_570384.png"
        string_val: "/workspace/tao-experiments/data/images/train/India_177319.png"
        string_val: "/workspace/tao-experiments/data/images/train/India_79637.png"
        string_val: "/workspace/tao-experiments/data/images/train/Somalia_205466.png"
        string_val: "/workspace/tao-experiments/data/images/train/Spain_7370579.png"
        string_val: "/workspace/tao-experiments/data/images/train/Spain_5678382.png"
        string_val: "/workspace/tao-experiments/data/images/train/Mekong_52610.png"
        string_val: "/workspace/tao-experiments/data/images/train/USA_994009.png"
        string_val: "/workspace/tao-experiments/data/images/train/Bolivia_23014.png"
        string_val: "/workspace/tao-experiments/data/images/train/Paraguay_80102.png"
        string_val: "/workspace/tao-experiments/data/images/train/Paraguay_149787.png"
        string_val: "/workspace/tao-experiments/data/images/train/USA_486103.png"
        string_val: "/workspace/tao-experiments/data/images/train/India_399883.png"
        string_val: "/workspace/tao-experiments/data/images/train/Spain_6537196.png"
        string_val: "/workspace/tao-experiments/data/images/train/Paraguay_896458.png"
        string_val: "/workspace/tao-experiments/data/images/train/India_44475.png"
        string_val: "/workspace/tao-experiments/data/images/train/Paraguay_921838.png"
        string_val: "/workspace/tao-experiments/data/images/train/USA_604222.png"
        string_val: "/workspace/tao-experiments/data/images/train/Ghana_234935.png"
        string_val: "/workspace/tao-experiments/data/images/train/Paraguay_24341.png"
        string_val: "/workspace/tao-experiments/data/images/train/Somalia_699062.png"
        string_val: "/workspace/tao-experiments/data/images/train/Mekong_382276.png"
        string_val: "/workspace/tao-experiments/data/images/train/Nigeria_225131.png"
        string_val: "/workspace/tao-experiments/data/images/train/Paraguay_721886.png"
        string_val: "/workspace/tao-experiments/data/images/train/Somalia_989553.png"
        string_val: "/workspace/tao-experiments/data/images/train/India_373039.png"
        string_val: "/workspace/tao-experiments/data/images/train/Spain_8372658.png"
        string_val: "/workspace/tao-experiments/data/images/train/Pakistan_474121.png"
        string_val: "/workspace/tao-experiments/data/images/train/India_774689.png"
        string_val: "/workspace/tao-experiments/data/images/train/Somalia_12849.png"
        string_val: "/workspace/tao-experiments/data/images/train/Pakistan_740461.png"
        string_val: "/workspace/tao-experiments/data/images/train/Spain_8154154.png"
        string_val: "/workspace/tao-experiments/data/images/train/USA_430764.png"
        string_val: "/workspace/tao-experiments/data/images/train/Mekong_1282475.png"
        string_val: "/workspace/tao-experiments/data/images/train/India_772630.png"
        string_val: "/workspace/tao-experiments/data/images/train/Bolivia_314919.png"
        string_val: "/workspace/tao-experiments/data/images/train/Mekong_342411.png"
        string_val: "/workspace/tao-experiments/data/images/train/Somalia_685158.png"
        string_val: "/workspace/tao-experiments/data/images/train/Mekong_474783.png"
        string_val: "/workspace/tao-experiments/data/images/train/Spain_7387658.png"
        string_val: "/workspace/tao-experiments/data/images/train/Paraguay_913449.png"
        string_val: "/workspace/tao-experiments/data/images/train/USA_664261.png"
        string_val: "/workspace/tao-experiments/data/images/train/Somalia_886726.png"
        string_val: "/workspace/tao-experiments/data/images/train/Ghana_97516.png"
        string_val: "/workspace/tao-experiments/data/images/train/Paraguay_1019808.png"
        string_val: "/workspace/tao-experiments/data/images/train/USA_86502.png"
        string_val: "/workspace/tao-experiments/data/images/train/Ghana_83483.png"
        string_val: "/workspace/tao-experiments/data/images/train/USA_308150.png"
        string_val: "/workspace/tao-experiments/data/images/train/Mekong_119477.png"
        string_val: "/workspace/tao-experiments/data/images/train/India_869358.png"
        string_val: "/workspace/tao-experiments/data/images/train/India_135434.png"
        string_val: "/workspace/tao-experiments/data/images/train/Ghana_154838.png"
        string_val: "/workspace/tao-experiments/data/images/train/Mekong_846007.png"
        string_val: "/workspace/tao-experiments/data/images/train/Nigeria_707067.png"
        string_val: "/workspace/tao-experiments/data/images/train/India_164336.png"
        string_val: "/workspace/tao-experiments/data/images/train/Pakistan_760290.png"
        string_val: "/workspace/tao-experiments/data/images/train/Nigeria_984831.png"
        string_val: "/workspace/tao-experiments/data/images/train/USA_933610.png"
        string_val: "/workspace/tao-experiments/data/images/train/Pakistan_849790.png"
        string_val: "/workspace/tao-experiments/data/images/train/Spain_1167260.png"
        string_val: "/workspace/tao-experiments/data/images/train/Pakistan_35915.png"
        string_val: "/workspace/tao-experiments/data/images/train/Mekong_1111068.png"
        string_val: "/workspace/tao-experiments/data/images/train/Sri-Lanka_52223.png"
        string_val: "/workspace/tao-experiments/data/images/train/Sri-Lanka_31559.png"
        string_val: "/workspace/tao-experiments/data/images/train/Paraguay_1029191.png"
        string_val: "/workspace/tao-experiments/data/images/train/USA_693819.png"
        string_val: "/workspace/tao-experiments/data/images/train/Somalia_93023.png"
        string_val: "/workspace/tao-experiments/data/images/train/Sri-Lanka_249079.png"
        string_val: "/workspace/tao-experiments/data/images/train/Paraguay_605682.png"
        string_val: "/workspace/tao-experiments/data/images/train/Sri-Lanka_135713.png"
        string_val: "/workspace/tao-experiments/data/images/train/India_979278.png"
        string_val: "/workspace/tao-experiments/data/images/train/Paraguay_470303.png"
        string_val: "/workspace/tao-experiments/data/images/train/Sri-Lanka_233609.png"
        string_val: "/workspace/tao-experiments/data/images/train/India_80221.png"
        string_val: "/workspace/tao-experiments/data/images/train/Sri-Lanka_55568.png"
        string_val: "/workspace/tao-experiments/data/images/train/Bolivia_242570.png"
        string_val: "/workspace/tao-experiments/data/images/train/USA_1010394.png"
        string_val: "/workspace/tao-experiments/data/images/train/India_652725.png"
        string_val: "/workspace/tao-experiments/data/images/train/India_591317.png"
        string_val: "/workspace/tao-experiments/data/images/train/USA_275372.png"
        string_val: "/workspace/tao-experiments/data/images/train/Spain_1199913.png"
        string_val: "/workspace/tao-experiments/data/images/train/Pakistan_246718.png"
        string_val: "/workspace/tao-experiments/data/images/train/Paraguay_511199.png"
        string_val: "/workspace/tao-experiments/data/images/train/India_1050276.png"
        string_val: "/workspace/tao-experiments/data/images/train/Paraguay_305760.png"
        string_val: "/workspace/tao-experiments/data/images/train/Somalia_1087508.png"
        string_val: "/workspace/tao-experiments/data/images/train/Paraguay_44682.png"
        string_val: "/workspace/tao-experiments/data/images/train/Ghana_953791.png"
        string_val: "/workspace/tao-experiments/data/images/train/Pakistan_70625.png"
        string_val: "/workspace/tao-experiments/data/images/train/Spain_7786924.png"
        string_val: "/workspace/tao-experiments/data/images/train/Mekong_1443339.png"
        string_val: "/workspace/tao-experiments/data/images/train/USA_831672.png"
        string_val: "/workspace/tao-experiments/data/images/train/Paraguay_232281.png"
        string_val: "/workspace/tao-experiments/data/images/train/Somalia_970508.png"
        string_val: "/workspace/tao-experiments/data/images/train/Nigeria_1095404.png"
        string_val: "/workspace/tao-experiments/data/images/train/Pakistan_909806.png"
        string_val: "/workspace/tao-experiments/data/images/train/India_1072277.png"
        string_val: "/workspace/tao-experiments/data/images/train/India_956930.png"
        string_val: "/workspace/tao-experiments/data/images/train/India_747992.png"
        string_val: "/workspace/tao-experiments/data/images/train/Ghana_247288.png"
        string_val: "/workspace/tao-experiments/data/images/train/USA_115033.png"
        string_val: "/workspace/tao-experiments/data/images/train/USA_761032.png"
        string_val: "/workspace/tao-experiments/data/images/train/Paraguay_651904.png"
        string_val: "/workspace/tao-experiments/data/images/train/India_70352.png"
        string_val: "/workspace/tao-experiments/data/images/train/Ghana_124834.png"
        string_val: "/workspace/tao-experiments/data/images/train/Sri-Lanka_653336.png"
        string_val: "/workspace/tao-experiments/data/images/train/Pakistan_167553.png"
        string_val: "/workspace/tao-experiments/data/images/train/Nigeria_820924.png"
        string_val: "/workspace/tao-experiments/data/images/train/India_624341.png"
        string_val: "/workspace/tao-experiments/data/images/train/Paraguay_1029042.png"
        string_val: "/workspace/tao-experiments/data/images/train/USA_908474.png"
        string_val: "/workspace/tao-experiments/data/images/train/Paraguay_153941.png"
        string_val: "/workspace/tao-experiments/data/images/train/Pakistan_43105.png"
        string_val: "/workspace/tao-experiments/data/images/train/Sri-Lanka_14484.png"
        string_val: "/workspace/tao-experiments/data/images/train/Ghana_7496.png"
        string_val: "/workspace/tao-experiments/data/images/train/Sri-Lanka_101973.png"
        string_val: "/workspace/tao-experiments/data/images/train/Ghana_168875.png"
        string_val: "/workspace/tao-experiments/data/images/train/Somalia_60129.png"
        string_val: "/workspace/tao-experiments/data/images/train/Paraguay_657443.png"
        string_val: "/workspace/tao-experiments/data/images/train/Sri-Lanka_649970.png"
        string_val: "/workspace/tao-experiments/data/images/train/India_943439.png"
        string_val: "/workspace/tao-experiments/data/images/train/Mekong_16233.png"
        string_val: "/workspace/tao-experiments/data/images/train/Nigeria_417184.png"
        string_val: "/workspace/tao-experiments/data/images/train/Sri-Lanka_534068.png"
        string_val: "/workspace/tao-experiments/data/images/train/Pakistan_246510.png"
        string_val: "/workspace/tao-experiments/data/images/train/Ghana_359826.png"
        string_val: "/workspace/tao-experiments/data/images/train/USA_198411.png"
        string_val: "/workspace/tao-experiments/data/images/train/Bolivia_60373.png"
        string_val: "/workspace/tao-experiments/data/images/train/Sri-Lanka_120804.png"
        string_val: "/workspace/tao-experiments/data/images/train/India_804466.png"
        string_val: "/workspace/tao-experiments/data/images/train/Paraguay_11869.png"
        string_val: "/workspace/tao-experiments/data/images/train/Bolivia_129334.png"
        string_val: "/workspace/tao-experiments/data/images/train/India_103447.png"
        string_val: "/workspace/tao-experiments/data/images/train/Spain_2523247.png"
        string_val: "/workspace/tao-experiments/data/images/train/India_59460.png"
        string_val: "/workspace/tao-experiments/data/images/train/India_592446.png"
        string_val: "/workspace/tao-experiments/data/images/train/Paraguay_271769.png"
        string_val: "/workspace/tao-experiments/data/images/train/Ghana_134751.png"
        string_val: "/workspace/tao-experiments/data/images/train/Ghana_887131.png"
        string_val: "/workspace/tao-experiments/data/images/train/Spain_3285448.png"
        string_val: "/workspace/tao-experiments/data/images/train/Pakistan_9684.png"
        string_val: "/workspace/tao-experiments/data/images/train/USA_232060.png"
        string_val: "/workspace/tao-experiments/data/images/train/India_91379.png"
        string_val: "/workspace/tao-experiments/data/images/train/Nigeria_81933.png"
        string_val: "/workspace/tao-experiments/data/images/train/Paraguay_225187.png"
        string_val: "/workspace/tao-experiments/data/images/train/Paraguay_403081.png"
        string_val: "/workspace/tao-experiments/data/images/train/Ghana_45911.png"
        string_val: "/workspace/tao-experiments/data/images/train/USA_19225.png"
        string_val: "/workspace/tao-experiments/data/images/train/USA_1049586.png"
        string_val: "/workspace/tao-experiments/data/images/train/India_769408.png"
        string_val: "/workspace/tao-experiments/data/images/train/USA_806273.png"
        string_val: "/workspace/tao-experiments/data/images/train/USA_955053.png"
        string_val: "/workspace/tao-experiments/data/images/train/Sri-Lanka_922192.png"
        string_val: "/workspace/tao-experiments/data/images/train/Sri-Lanka_956740.png"
        string_val: "/workspace/tao-experiments/data/images/train/Spain_716716.png"
        string_val: "/workspace/tao-experiments/data/images/train/Sri-Lanka_916628.png"
        string_val: "/workspace/tao-experiments/data/images/train/Nigeria_600295.png"
        string_val: "/workspace/tao-experiments/data/images/train/Paraguay_126224.png"
        string_val: "/workspace/tao-experiments/data/images/train/India_828067.png"
        string_val: "/workspace/tao-experiments/data/images/train/Paraguay_179624.png"
        string_val: "/workspace/tao-experiments/data/images/train/Mekong_254910.png"
        string_val: "/workspace/tao-experiments/data/images/train/Mekong_977338.png"
        string_val: "/workspace/tao-experiments/data/images/train/Paraguay_54421.png"
        string_val: "/workspace/tao-experiments/data/images/train/Pakistan_210595.png"
        string_val: "/workspace/tao-experiments/data/images/train/USA_504150.png"
        string_val: "/workspace/tao-experiments/data/images/train/Somalia_992457.png"
        string_val: "/workspace/tao-experiments/data/images/train/Spain_6199994.png"
        string_val: "/workspace/tao-experiments/data/images/train/Spain_2938657.png"
        string_val: "/workspace/tao-experiments/data/images/train/Nigeria_529525.png"
        string_val: "/workspace/tao-experiments/data/images/train/Nigeria_439488.png"
        string_val: "/workspace/tao-experiments/data/images/train/Ghana_1033830.png"
        string_val: "/workspace/tao-experiments/data/images/train/Sri-Lanka_612594.png"
        string_val: "/workspace/tao-experiments/data/images/train/Ghana_11745.png"
        string_val: "/workspace/tao-experiments/data/images/train/USA_778194.png"
        string_val: "/workspace/tao-experiments/data/images/train/Ghana_308249.png"
        string_val: "/workspace/tao-experiments/data/images/train/Paraguay_648632.png"
        string_val: "/workspace/tao-experiments/data/images/train/India_265762.png"
        string_val: "/workspace/tao-experiments/data/images/train/USA_1068362.png"
        string_val: "/workspace/tao-experiments/data/images/train/Somalia_94102.png"
        string_val: "/workspace/tao-experiments/data/images/train/Ghana_866994.png"
        string_val: "/workspace/tao-experiments/data/images/train/Mekong_1439641.png"
        string_val: "/workspace/tao-experiments/data/images/train/Pakistan_528249.png"
        string_val: "/workspace/tao-experiments/data/images/train/Ghana_319168.png"
        string_val: "/workspace/tao-experiments/data/images/train/Mekong_922373.png"
        string_val: "/workspace/tao-experiments/data/images/train/Ghana_141910.png"
        string_val: "/workspace/tao-experiments/data/images/train/India_698338.png"
        string_val: "/workspace/tao-experiments/data/images/train/Mekong_45934.png"
        string_val: "/workspace/tao-experiments/data/images/train/Ghana_167233.png"
        string_val: "/workspace/tao-experiments/data/images/train/India_1068117.png"
        string_val: "/workspace/tao-experiments/data/images/train/Nigeria_31096.png"
        string_val: "/workspace/tao-experiments/data/images/train/India_73419.png"
        string_val: "/workspace/tao-experiments/data/images/train/USA_225017.png"
        string_val: "/workspace/tao-experiments/data/images/train/Paraguay_1076204.png"
        string_val: "/workspace/tao-experiments/data/images/train/USA_260929.png"
        string_val: "/workspace/tao-experiments/data/images/train/USA_251323.png"
        string_val: "/workspace/tao-experiments/data/images/train/Pakistan_712873.png"
        string_val: "/workspace/tao-experiments/data/images/train/USA_652955.png"
        string_val: "/workspace/tao-experiments/data/images/train/Mekong_1395593.png"
        string_val: "/workspace/tao-experiments/data/images/train/India_1018317.png"
        string_val: "/workspace/tao-experiments/data/images/train/Sri-Lanka_132922.png"
        string_val: "/workspace/tao-experiments/data/images/train/Sri-Lanka_236030.png"
        string_val: "/workspace/tao-experiments/data/images/train/Mekong_424793.png"
        string_val: "/workspace/tao-experiments/data/images/train/India_952728.png"
        string_val: "/workspace/tao-experiments/data/images/train/India_179238.png"
        string_val: "/workspace/tao-experiments/data/images/train/Mekong_293769.png"
        string_val: "/workspace/tao-experiments/data/images/train/Mekong_1413877.png"
      }
    }
  }
}
node {
  name: "normalize_element/component_1"
  op: "Const"
  device: "/device:CPU:0"
  attr {
    key: "_output_shapes"
    value {
      list {
        shape {
          dim {
            size: 334
          }
        }
      }
    }
  }
  attr {
    key: "dtype"
    value {
      type: DT_STRING
    }
  }
  attr {
    key: "value"
    value {
      tensor {
        dtype: DT_STRING
        tensor_shape {
          dim {
            size: 334
          }
        }
        string_val: "/workspace/tao-experiments/data/masks/train/Mekong_1191208.png"
        string_val: "/workspace/tao-experiments/data/masks/train/Paraguay_59731.png"
        string_val: "/workspace/tao-experiments/data/masks/train/India_391908.png"
        string_val: "/workspace/tao-experiments/data/masks/train/India_285297.png"
        string_val: "/workspace/tao-experiments/data/masks/train/Sri-Lanka_1038087.png"
        string_val: "/workspace/tao-experiments/data/masks/train/Paraguay_247656.png"
        string_val: "/workspace/tao-experiments/data/masks/train/Ghana_495107.png"
        string_val: "/workspace/tao-experiments/data/masks/train/Mekong_1149855.png"
        string_val: "/workspace/tao-experiments/data/masks/train/India_981708.png"
        string_val: "/workspace/tao-experiments/data/masks/train/Sri-Lanka_450918.png"
        string_val: "/workspace/tao-experiments/data/masks/train/India_56450.png"
        string_val: "/workspace/tao-experiments/data/masks/train/Paraguay_284928.png"
        string_val: "/workspace/tao-experiments/data/masks/train/Spain_5650136.png"
        string_val: "/workspace/tao-experiments/data/masks/train/Ghana_362274.png"
        string_val: "/workspace/tao-experiments/data/masks/train/India_631692.png"
        string_val: "/workspace/tao-experiments/data/masks/train/Paraguay_252217.png"
        string_val: "/workspace/tao-experiments/data/masks/train/Ghana_83200.png"
        string_val: "/workspace/tao-experiments/data/masks/train/Sri-Lanka_49764.png"
        string_val: "/workspace/tao-experiments/data/masks/train/Paraguay_205585.png"
        string_val: "/workspace/tao-experiments/data/masks/train/USA_770353.png"
        string_val: "/workspace/tao-experiments/data/masks/train/India_842775.png"
        string_val: "/workspace/tao-experiments/data/masks/train/USA_170264.png"
        string_val: "/workspace/tao-experiments/data/masks/train/Somalia_166342.png"
        string_val: "/workspace/tao-experiments/data/masks/train/Paraguay_989230.png"
        string_val: "/workspace/tao-experiments/data/masks/train/Paraguay_36015.png"
        string_val: "/workspace/tao-experiments/data/masks/train/Paraguay_795075.png"
        string_val: "/workspace/tao-experiments/data/masks/train/USA_84195.png"
        string_val: "/workspace/tao-experiments/data/masks/train/USA_670826.png"
        string_val: "/workspace/tao-experiments/data/masks/train/Ghana_128663.png"
        string_val: "/workspace/tao-experiments/data/masks/train/Paraguay_581976.png"
        string_val: "/workspace/tao-experiments/data/masks/train/Spain_7558720.png"
        string_val: "/workspace/tao-experiments/data/masks/train/India_533192.png"
        string_val: "/workspace/tao-experiments/data/masks/train/Sri-Lanka_377277.png"
        string_val: "/workspace/tao-experiments/data/masks/train/India_136196.png"
        string_val: "/workspace/tao-experiments/data/masks/train/Pakistan_667363.png"
        string_val: "/workspace/tao-experiments/data/masks/train/Spain_8199661.png"
        string_val: "/workspace/tao-experiments/data/masks/train/India_1018327.png"
        string_val: "/workspace/tao-experiments/data/masks/train/Ghana_132163.png"
        string_val: "/workspace/tao-experiments/data/masks/train/Spain_7856615.png"
        string_val: "/workspace/tao-experiments/data/masks/train/Ghana_1078550.png"
        string_val: "/workspace/tao-experiments/data/masks/train/USA_605492.png"
        string_val: "/workspace/tao-experiments/data/masks/train/Bolivia_312675.png"
        string_val: "/workspace/tao-experiments/data/masks/train/Paraguay_191503.png"
        string_val: "/workspace/tao-experiments/data/masks/train/USA_438959.png"
        string_val: "/workspace/tao-experiments/data/masks/train/USA_905409.png"
        string_val: "/workspace/tao-experiments/data/masks/train/USA_741178.png"
        string_val: "/workspace/tao-experiments/data/masks/train/Ghana_194723.png"
        string_val: "/workspace/tao-experiments/data/masks/train/Ghana_49890.png"
        string_val: "/workspace/tao-experiments/data/masks/train/USA_224165.png"
        string_val: "/workspace/tao-experiments/data/masks/train/Nigeria_952958.png"
        string_val: "/workspace/tao-experiments/data/masks/train/Pakistan_211386.png"
        string_val: "/workspace/tao-experiments/data/masks/train/Sri-Lanka_236628.png"
        string_val: "/workspace/tao-experiments/data/masks/train/Paraguay_892933.png"
        string_val: "/workspace/tao-experiments/data/masks/train/Sri-Lanka_748447.png"
        string_val: "/workspace/tao-experiments/data/masks/train/USA_58086.png"
        string_val: "/workspace/tao-experiments/data/masks/train/Ghana_144050.png"
        string_val: "/workspace/tao-experiments/data/masks/train/India_25540.png"
        string_val: "/workspace/tao-experiments/data/masks/train/India_707886.png"
        string_val: "/workspace/tao-experiments/data/masks/train/Ghana_135389.png"
        string_val: "/workspace/tao-experiments/data/masks/train/Spain_8565131.png"
        string_val: "/workspace/tao-experiments/data/masks/train/Bolivia_103757.png"
        string_val: "/workspace/tao-experiments/data/masks/train/Mekong_1396181.png"
        string_val: "/workspace/tao-experiments/data/masks/train/Bolivia_432776.png"
        string_val: "/workspace/tao-experiments/data/masks/train/Pakistan_1036366.png"
        string_val: "/workspace/tao-experiments/data/masks/train/Spain_337094.png"
        string_val: "/workspace/tao-experiments/data/masks/train/Sri-Lanka_152185.png"
        string_val: "/workspace/tao-experiments/data/masks/train/Paraguay_224845.png"
        string_val: "/workspace/tao-experiments/data/masks/train/Nigeria_22088.png"
        string_val: "/workspace/tao-experiments/data/masks/train/India_900498.png"
        string_val: "/workspace/tao-experiments/data/masks/train/Bolivia_195474.png"
        string_val: "/workspace/tao-experiments/data/masks/train/USA_347609.png"
        string_val: "/workspace/tao-experiments/data/masks/train/Bolivia_76104.png"
        string_val: "/workspace/tao-experiments/data/masks/train/Spain_6095801.png"
        string_val: "/workspace/tao-experiments/data/masks/train/India_118868.png"
        string_val: "/workspace/tao-experiments/data/masks/train/USA_366607.png"
        string_val: "/workspace/tao-experiments/data/masks/train/Paraguay_12870.png"
        string_val: "/workspace/tao-experiments/data/masks/train/Paraguay_482517.png"
        string_val: "/workspace/tao-experiments/data/masks/train/USA_788696.png"
        string_val: "/workspace/tao-experiments/data/masks/train/Nigeria_78061.png"
        string_val: "/workspace/tao-experiments/data/masks/train/Ghana_895194.png"
        string_val: "/workspace/tao-experiments/data/masks/train/Somalia_626316.png"
        string_val: "/workspace/tao-experiments/data/masks/train/Somalia_322855.png"
        string_val: "/workspace/tao-experiments/data/masks/train/USA_655230.png"
        string_val: "/workspace/tao-experiments/data/masks/train/Paraguay_1056717.png"
        string_val: "/workspace/tao-experiments/data/masks/train/Paraguay_62897.png"
        string_val: "/workspace/tao-experiments/data/masks/train/USA_211406.png"
        string_val: "/workspace/tao-experiments/data/masks/train/USA_646878.png"
        string_val: "/workspace/tao-experiments/data/masks/train/Ghana_5079.png"
        string_val: "/workspace/tao-experiments/data/masks/train/USA_231124.png"
        string_val: "/workspace/tao-experiments/data/masks/train/Somalia_649376.png"
        string_val: "/workspace/tao-experiments/data/masks/train/Pakistan_401863.png"
        string_val: "/workspace/tao-experiments/data/masks/train/Paraguay_148318.png"
        string_val: "/workspace/tao-experiments/data/masks/train/Ghana_147015.png"
        string_val: "/workspace/tao-experiments/data/masks/train/Spain_7604243.png"
        string_val: "/workspace/tao-experiments/data/masks/train/USA_527077.png"
        string_val: "/workspace/tao-experiments/data/masks/train/USA_179917.png"
        string_val: "/workspace/tao-experiments/data/masks/train/Nigeria_143329.png"
        string_val: "/workspace/tao-experiments/data/masks/train/Mekong_221789.png"
        string_val: "/workspace/tao-experiments/data/masks/train/India_764946.png"
        string_val: "/workspace/tao-experiments/data/masks/train/Paraguay_280900.png"
        string_val: "/workspace/tao-experiments/data/masks/train/Spain_6860600.png"
        string_val: "/workspace/tao-experiments/data/masks/train/Sri-Lanka_178753.png"
        string_val: "/workspace/tao-experiments/data/masks/train/Ghana_868803.png"
        string_val: "/workspace/tao-experiments/data/masks/train/Ghana_264787.png"
        string_val: "/workspace/tao-experiments/data/masks/train/Mekong_98310.png"
        string_val: "/workspace/tao-experiments/data/masks/train/India_664410.png"
        string_val: "/workspace/tao-experiments/data/masks/train/Bolivia_360519.png"
        string_val: "/workspace/tao-experiments/data/masks/train/Sri-Lanka_1049830.png"
        string_val: "/workspace/tao-experiments/data/masks/train/India_1017769.png"
        string_val: "/workspace/tao-experiments/data/masks/train/Sri-Lanka_847275.png"
        string_val: "/workspace/tao-experiments/data/masks/train/USA_638521.png"
        string_val: "/workspace/tao-experiments/data/masks/train/Paraguay_76868.png"
        string_val: "/workspace/tao-experiments/data/masks/train/Ghana_146222.png"
        string_val: "/workspace/tao-experiments/data/masks/train/India_500266.png"
        string_val: "/workspace/tao-experiments/data/masks/train/USA_67102.png"
        string_val: "/workspace/tao-experiments/data/masks/train/India_773682.png"
        string_val: "/workspace/tao-experiments/data/masks/train/Paraguay_198534.png"
        string_val: "/workspace/tao-experiments/data/masks/train/Spain_5816638.png"
        string_val: "/workspace/tao-experiments/data/masks/train/Paraguay_7894.png"
        string_val: "/workspace/tao-experiments/data/masks/train/Sri-Lanka_63307.png"
        string_val: "/workspace/tao-experiments/data/masks/train/India_534470.png"
        string_val: "/workspace/tao-experiments/data/masks/train/India_747970.png"
        string_val: "/workspace/tao-experiments/data/masks/train/Bolivia_233925.png"
        string_val: "/workspace/tao-experiments/data/masks/train/USA_1039203.png"
        string_val: "/workspace/tao-experiments/data/masks/train/Mekong_774566.png"
        string_val: "/workspace/tao-experiments/data/masks/train/Sri-Lanka_400518.png"
        string_val: "/workspace/tao-experiments/data/masks/train/India_591549.png"
        string_val: "/workspace/tao-experiments/data/masks/train/Paraguay_246154.png"
        string_val: "/workspace/tao-experiments/data/masks/train/India_570384.png"
        string_val: "/workspace/tao-experiments/data/masks/train/India_177319.png"
        string_val: "/workspace/tao-experiments/data/masks/train/India_79637.png"
        string_val: "/workspace/tao-experiments/data/masks/train/Somalia_205466.png"
        string_val: "/workspace/tao-experiments/data/masks/train/Spain_7370579.png"
        string_val: "/workspace/tao-experiments/data/masks/train/Spain_5678382.png"
        string_val: "/workspace/tao-experiments/data/masks/train/Mekong_52610.png"
        string_val: "/workspace/tao-experiments/data/masks/train/USA_994009.png"
        string_val: "/workspace/tao-experiments/data/masks/train/Bolivia_23014.png"
        string_val: "/workspace/tao-experiments/data/masks/train/Paraguay_80102.png"
        string_val: "/workspace/tao-experiments/data/masks/train/Paraguay_149787.png"
        string_val: "/workspace/tao-experiments/data/masks/train/USA_486103.png"
        string_val: "/workspace/tao-experiments/data/masks/train/India_399883.png"
        string_val: "/workspace/tao-experiments/data/masks/train/Spain_6537196.png"
        string_val: "/workspace/tao-experiments/data/masks/train/Paraguay_896458.png"
        string_val: "/workspace/tao-experiments/data/masks/train/India_44475.png"
        string_val: "/workspace/tao-experiments/data/masks/train/Paraguay_921838.png"
        string_val: "/workspace/tao-experiments/data/masks/train/USA_604222.png"
        string_val: "/workspace/tao-experiments/data/masks/train/Ghana_234935.png"
        string_val: "/workspace/tao-experiments/data/masks/train/Paraguay_24341.png"
        string_val: "/workspace/tao-experiments/data/masks/train/Somalia_699062.png"
        string_val: "/workspace/tao-experiments/data/masks/train/Mekong_382276.png"
        string_val: "/workspace/tao-experiments/data/masks/train/Nigeria_225131.png"
        string_val: "/workspace/tao-experiments/data/masks/train/Paraguay_721886.png"
        string_val: "/workspace/tao-experiments/data/masks/train/Somalia_989553.png"
        string_val: "/workspace/tao-experiments/data/masks/train/India_373039.png"
        string_val: "/workspace/tao-experiments/data/masks/train/Spain_8372658.png"
        string_val: "/workspace/tao-experiments/data/masks/train/Pakistan_474121.png"
        string_val: "/workspace/tao-experiments/data/masks/train/India_774689.png"
        string_val: "/workspace/tao-experiments/data/masks/train/Somalia_12849.png"
        string_val: "/workspace/tao-experiments/data/masks/train/Pakistan_740461.png"
        string_val: "/workspace/tao-experiments/data/masks/train/Spain_8154154.png"
        string_val: "/workspace/tao-experiments/data/masks/train/USA_430764.png"
        string_val: "/workspace/tao-experiments/data/masks/train/Mekong_1282475.png"
        string_val: "/workspace/tao-experiments/data/masks/train/India_772630.png"
        string_val: "/workspace/tao-experiments/data/masks/train/Bolivia_314919.png"
        string_val: "/workspace/tao-experiments/data/masks/train/Mekong_342411.png"
        string_val: "/workspace/tao-experiments/data/masks/train/Somalia_685158.png"
        string_val: "/workspace/tao-experiments/data/masks/train/Mekong_474783.png"
        string_val: "/workspace/tao-experiments/data/masks/train/Spain_7387658.png"
        string_val: "/workspace/tao-experiments/data/masks/train/Paraguay_913449.png"
        string_val: "/workspace/tao-experiments/data/masks/train/USA_664261.png"
        string_val: "/workspace/tao-experiments/data/masks/train/Somalia_886726.png"
        string_val: "/workspace/tao-experiments/data/masks/train/Ghana_97516.png"
        string_val: "/workspace/tao-experiments/data/masks/train/Paraguay_1019808.png"
        string_val: "/workspace/tao-experiments/data/masks/train/USA_86502.png"
        string_val: "/workspace/tao-experiments/data/masks/train/Ghana_83483.png"
        string_val: "/workspace/tao-experiments/data/masks/train/USA_308150.png"
        string_val: "/workspace/tao-experiments/data/masks/train/Mekong_119477.png"
        string_val: "/workspace/tao-experiments/data/masks/train/India_869358.png"
        string_val: "/workspace/tao-experiments/data/masks/train/India_135434.png"
        string_val: "/workspace/tao-experiments/data/masks/train/Ghana_154838.png"
        string_val: "/workspace/tao-experiments/data/masks/train/Mekong_846007.png"
        string_val: "/workspace/tao-experiments/data/masks/train/Nigeria_707067.png"
        string_val: "/workspace/tao-experiments/data/masks/train/India_164336.png"
        string_val: "/workspace/tao-experiments/data/masks/train/Pakistan_760290.png"
        string_val: "/workspace/tao-experiments/data/masks/train/Nigeria_984831.png"
        string_val: "/workspace/tao-experiments/data/masks/train/USA_933610.png"
        string_val: "/workspace/tao-experiments/data/masks/train/Pakistan_849790.png"
        string_val: "/workspace/tao-experiments/data/masks/train/Spain_1167260.png"
        string_val: "/workspace/tao-experiments/data/masks/train/Pakistan_35915.png"
        string_val: "/workspace/tao-experiments/data/masks/train/Mekong_1111068.png"
        string_val: "/workspace/tao-experiments/data/masks/train/Sri-Lanka_52223.png"
        string_val: "/workspace/tao-experiments/data/masks/train/Sri-Lanka_31559.png"
        string_val: "/workspace/tao-experiments/data/masks/train/Paraguay_1029191.png"
        string_val: "/workspace/tao-experiments/data/masks/train/USA_693819.png"
        string_val: "/workspace/tao-experiments/data/masks/train/Somalia_93023.png"
        string_val: "/workspace/tao-experiments/data/masks/train/Sri-Lanka_249079.png"
        string_val: "/workspace/tao-experiments/data/masks/train/Paraguay_605682.png"
        string_val: "/workspace/tao-experiments/data/masks/train/Sri-Lanka_135713.png"
        string_val: "/workspace/tao-experiments/data/masks/train/India_979278.png"
        string_val: "/workspace/tao-experiments/data/masks/train/Paraguay_470303.png"
        string_val: "/workspace/tao-experiments/data/masks/train/Sri-Lanka_233609.png"
        string_val: "/workspace/tao-experiments/data/masks/train/India_80221.png"
        string_val: "/workspace/tao-experiments/data/masks/train/Sri-Lanka_55568.png"
        string_val: "/workspace/tao-experiments/data/masks/train/Bolivia_242570.png"
        string_val: "/workspace/tao-experiments/data/masks/train/USA_1010394.png"
        string_val: "/workspace/tao-experiments/data/masks/train/India_652725.png"
        string_val: "/workspace/tao-experiments/data/masks/train/India_591317.png"
        string_val: "/workspace/tao-experiments/data/masks/train/USA_275372.png"
        string_val: "/workspace/tao-experiments/data/masks/train/Spain_1199913.png"
        string_val: "/workspace/tao-experiments/data/masks/train/Pakistan_246718.png"
        string_val: "/workspace/tao-experiments/data/masks/train/Paraguay_511199.png"
        string_val: "/workspace/tao-experiments/data/masks/train/India_1050276.png"
        string_val: "/workspace/tao-experiments/data/masks/train/Paraguay_305760.png"
        string_val: "/workspace/tao-experiments/data/masks/train/Somalia_1087508.png"
        string_val: "/workspace/tao-experiments/data/masks/train/Paraguay_44682.png"
        string_val: "/workspace/tao-experiments/data/masks/train/Ghana_953791.png"
        string_val: "/workspace/tao-experiments/data/masks/train/Pakistan_70625.png"
        string_val: "/workspace/tao-experiments/data/masks/train/Spain_7786924.png"
        string_val: "/workspace/tao-experiments/data/masks/train/Mekong_1443339.png"
        string_val: "/workspace/tao-experiments/data/masks/train/USA_831672.png"
        string_val: "/workspace/tao-experiments/data/masks/train/Paraguay_232281.png"
        string_val: "/workspace/tao-experiments/data/masks/train/Somalia_970508.png"
        string_val: "/workspace/tao-experiments/data/masks/train/Nigeria_1095404.png"
        string_val: "/workspace/tao-experiments/data/masks/train/Pakistan_909806.png"
        string_val: "/workspace/tao-experiments/data/masks/train/India_1072277.png"
        string_val: "/workspace/tao-experiments/data/masks/train/India_956930.png"
        string_val: "/workspace/tao-experiments/data/masks/train/India_747992.png"
        string_val: "/workspace/tao-experiments/data/masks/train/Ghana_247288.png"
        string_val: "/workspace/tao-experiments/data/masks/train/USA_115033.png"
        string_val: "/workspace/tao-experiments/data/masks/train/USA_761032.png"
        string_val: "/workspace/tao-experiments/data/masks/train/Paraguay_651904.png"
        string_val: "/workspace/tao-experiments/data/masks/train/India_70352.png"
        string_val: "/workspace/tao-experiments/data/masks/train/Ghana_124834.png"
        string_val: "/workspace/tao-experiments/data/masks/train/Sri-Lanka_653336.png"
        string_val: "/workspace/tao-experiments/data/masks/train/Pakistan_167553.png"
        string_val: "/workspace/tao-experiments/data/masks/train/Nigeria_820924.png"
        string_val: "/workspace/tao-experiments/data/masks/train/India_624341.png"
        string_val: "/workspace/tao-experiments/data/masks/train/Paraguay_1029042.png"
        string_val: "/workspace/tao-experiments/data/masks/train/USA_908474.png"
        string_val: "/workspace/tao-experiments/data/masks/train/Paraguay_153941.png"
        string_val: "/workspace/tao-experiments/data/masks/train/Pakistan_43105.png"
        string_val: "/workspace/tao-experiments/data/masks/train/Sri-Lanka_14484.png"
        string_val: "/workspace/tao-experiments/data/masks/train/Ghana_7496.png"
        string_val: "/workspace/tao-experiments/data/masks/train/Sri-Lanka_101973.png"
        string_val: "/workspace/tao-experiments/data/masks/train/Ghana_168875.png"
        string_val: "/workspace/tao-experiments/data/masks/train/Somalia_60129.png"
        string_val: "/workspace/tao-experiments/data/masks/train/Paraguay_657443.png"
        string_val: "/workspace/tao-experiments/data/masks/train/Sri-Lanka_649970.png"
        string_val: "/workspace/tao-experiments/data/masks/train/India_943439.png"
        string_val: "/workspace/tao-experiments/data/masks/train/Mekong_16233.png"
        string_val: "/workspace/tao-experiments/data/masks/train/Nigeria_417184.png"
        string_val: "/workspace/tao-experiments/data/masks/train/Sri-Lanka_534068.png"
        string_val: "/workspace/tao-experiments/data/masks/train/Pakistan_246510.png"
        string_val: "/workspace/tao-experiments/data/masks/train/Ghana_359826.png"
        string_val: "/workspace/tao-experiments/data/masks/train/USA_198411.png"
        string_val: "/workspace/tao-experiments/data/masks/train/Bolivia_60373.png"
        string_val: "/workspace/tao-experiments/data/masks/train/Sri-Lanka_120804.png"
        string_val: "/workspace/tao-experiments/data/masks/train/India_804466.png"
        string_val: "/workspace/tao-experiments/data/masks/train/Paraguay_11869.png"
        string_val: "/workspace/tao-experiments/data/masks/train/Bolivia_129334.png"
        string_val: "/workspace/tao-experiments/data/masks/train/India_103447.png"
        string_val: "/workspace/tao-experiments/data/masks/train/Spain_2523247.png"
        string_val: "/workspace/tao-experiments/data/masks/train/India_59460.png"
        string_val: "/workspace/tao-experiments/data/masks/train/India_592446.png"
        string_val: "/workspace/tao-experiments/data/masks/train/Paraguay_271769.png"
        string_val: "/workspace/tao-experiments/data/masks/train/Ghana_134751.png"
        string_val: "/workspace/tao-experiments/data/masks/train/Ghana_887131.png"
        string_val: "/workspace/tao-experiments/data/masks/train/Spain_3285448.png"
        string_val: "/workspace/tao-experiments/data/masks/train/Pakistan_9684.png"
        string_val: "/workspace/tao-experiments/data/masks/train/USA_232060.png"
        string_val: "/workspace/tao-experiments/data/masks/train/India_91379.png"
        string_val: "/workspace/tao-experiments/data/masks/train/Nigeria_81933.png"
        string_val: "/workspace/tao-experiments/data/masks/train/Paraguay_225187.png"
        string_val: "/workspace/tao-experiments/data/masks/train/Paraguay_403081.png"
        string_val: "/workspace/tao-experiments/data/masks/train/Ghana_45911.png"
        string_val: "/workspace/tao-experiments/data/masks/train/USA_19225.png"
        string_val: "/workspace/tao-experiments/data/masks/train/USA_1049586.png"
        string_val: "/workspace/tao-experiments/data/masks/train/India_769408.png"
        string_val: "/workspace/tao-experiments/data/masks/train/USA_806273.png"
        string_val: "/workspace/tao-experiments/data/masks/train/USA_955053.png"
        string_val: "/workspace/tao-experiments/data/masks/train/Sri-Lanka_922192.png"
        string_val: "/workspace/tao-experiments/data/masks/train/Sri-Lanka_956740.png"
        string_val: "/workspace/tao-experiments/data/masks/train/Spain_716716.png"
        string_val: "/workspace/tao-experiments/data/masks/train/Sri-Lanka_916628.png"
        string_val: "/workspace/tao-experiments/data/masks/train/Nigeria_600295.png"
        string_val: "/workspace/tao-experiments/data/masks/train/Paraguay_126224.png"
        string_val: "/workspace/tao-experiments/data/masks/train/India_828067.png"
        string_val: "/workspace/tao-experiments/data/masks/train/Paraguay_179624.png"
        string_val: "/workspace/tao-experiments/data/masks/train/Mekong_254910.png"
        string_val: "/workspace/tao-experiments/data/masks/train/Mekong_977338.png"
        string_val: "/workspace/tao-experiments/data/masks/train/Paraguay_54421.png"
        string_val: "/workspace/tao-experiments/data/masks/train/Pakistan_210595.png"
        string_val: "/workspace/tao-experiments/data/masks/train/USA_504150.png"
        string_val: "/workspace/tao-experiments/data/masks/train/Somalia_992457.png"
        string_val: "/workspace/tao-experiments/data/masks/train/Spain_6199994.png"
        string_val: "/workspace/tao-experiments/data/masks/train/Spain_2938657.png"
        string_val: "/workspace/tao-experiments/data/masks/train/Nigeria_529525.png"
        string_val: "/workspace/tao-experiments/data/masks/train/Nigeria_439488.png"
        string_val: "/workspace/tao-experiments/data/masks/train/Ghana_1033830.png"
        string_val: "/workspace/tao-experiments/data/masks/train/Sri-Lanka_612594.png"
        string_val: "/workspace/tao-experiments/data/masks/train/Ghana_11745.png"
        string_val: "/workspace/tao-experiments/data/masks/train/USA_778194.png"
        string_val: "/workspace/tao-experiments/data/masks/train/Ghana_308249.png"
        string_val: "/workspace/tao-experiments/data/masks/train/Paraguay_648632.png"
        string_val: "/workspace/tao-experiments/data/masks/train/India_265762.png"
        string_val: "/workspace/tao-experiments/data/masks/train/USA_1068362.png"
        string_val: "/workspace/tao-experiments/data/masks/train/Somalia_94102.png"
        string_val: "/workspace/tao-experiments/data/masks/train/Ghana_866994.png"
        string_val: "/workspace/tao-experiments/data/masks/train/Mekong_1439641.png"
        string_val: "/workspace/tao-experiments/data/masks/train/Pakistan_528249.png"
        string_val: "/workspace/tao-experiments/data/masks/train/Ghana_319168.png"
        string_val: "/workspace/tao-experiments/data/masks/train/Mekong_922373.png"
        string_val: "/workspace/tao-experiments/data/masks/train/Ghana_141910.png"
        string_val: "/workspace/tao-experiments/data/masks/train/India_698338.png"
        string_val: "/workspace/tao-experiments/data/masks/train/Mekong_45934.png"
        string_val: "/workspace/tao-experiments/data/masks/train/Ghana_167233.png"
        string_val: "/workspace/tao-experiments/data/masks/train/India_1068117.png"
        string_val: "/workspace/tao-experiments/data/masks/train/Nigeria_31096.png"
        string_val: "/workspace/tao-experiments/data/masks/train/India_73419.png"
        string_val: "/workspace/tao-experiments/data/masks/train/USA_225017.png"
        string_val: "/workspace/tao-experiments/data/masks/train/Paraguay_1076204.png"
        string_val: "/workspace/tao-experiments/data/masks/train/USA_260929.png"
        string_val: "/workspace/tao-experiments/data/masks/train/USA_251323.png"
        string_val: "/workspace/tao-experiments/data/masks/train/Pakistan_712873.png"
        string_val: "/workspace/tao-experiments/data/masks/train/USA_652955.png"
        string_val: "/workspace/tao-experiments/data/masks/train/Mekong_1395593.png"
        string_val: "/workspace/tao-experiments/data/masks/train/India_1018317.png"
        string_val: "/workspace/tao-experiments/data/masks/train/Sri-Lanka_132922.png"
        string_val: "/workspace/tao-experiments/data/masks/train/Sri-Lanka_236030.png"
        string_val: "/workspace/tao-experiments/data/masks/train/Mekong_424793.png"
        string_val: "/workspace/tao-experiments/data/masks/train/India_952728.png"
        string_val: "/workspace/tao-experiments/data/masks/train/India_179238.png"
        string_val: "/workspace/tao-experiments/data/masks/train/Mekong_293769.png"
        string_val: "/workspace/tao-experiments/data/masks/train/Mekong_1413877.png"
      }
    }
  }
}
node {
  name: "TensorSliceDataset"
  op: "TensorSliceDataset"
  input: "normalize_element/component_0"
  input: "normalize_element/component_1"
  device: "/device:CPU:0"
  attr {
    key: "Toutput_types"
    value {
      list {
        type: DT_STRING
        type: DT_STRING
      }
    }
  }
  attr {
    key: "_output_shapes"
    value {
      list {
        shape {
        }
      }
    }
  }
  attr {
    key: "output_shapes"
    value {
      list {
        shape {
        }
        shape {
        }
      }
    }
  }
}
node {
  name: "buffer_size"
  op: "Const"
  device: "/device:CPU:0"
  attr {
    key: "_output_shapes"
    value {
      list {
        shape {
        }
      }
    }
  }
  attr {
    key: "dtype"
    value {
      type: DT_INT64
    }
  }
  attr {
    key: "value"
    value {
      tensor {
        dtype: DT_INT64
        tensor_shape {
        }
        int64_val: 334
      }
    }
  }
}
node {
  name: "seed"
  op: "Const"
  device: "/device:CPU:0"
  attr {
    key: "_output_shapes"
    value {
      list {
        shape {
        }
      }
    }
  }
  attr {
    key: "dtype"
    value {
      type: DT_INT64
    }
  }
  attr {
    key: "value"
    value {
      tensor {
        dtype: DT_INT64
        tensor_shape {
        }
        int64_val: 87654321
      }
    }
  }
}
node {
  name: "seed2/Const"
  op: "Const"
  device: "/device:CPU:0"
  attr {
    key: "_output_shapes"
    value {
      list {
        shape {
        }
      }
    }
  }
  attr {
    key: "dtype"
    value {
      type: DT_INT64
    }
  }
  attr {
    key: "value"
    value {
      tensor {
        dtype: DT_INT64
        tensor_shape {
        }
        int64_val: 0
      }
    }
  }
}
node {
  name: "seed2/Equal/y"
  op: "Const"
  device: "/device:CPU:0"
  attr {
    key: "_output_shapes"
    value {
      list {
        shape {
        }
      }
    }
  }
  attr {
    key: "dtype"
    value {
      type: DT_INT64
    }
  }
  attr {
    key: "value"
    value {
      tensor {
        dtype: DT_INT64
        tensor_shape {
        }
        int64_val: 0
      }
    }
  }
}
node {
  name: "seed2/Equal"
  op: "Equal"
  input: "seed"
  input: "seed2/Equal/y"
  device: "/device:CPU:0"
  attr {
    key: "T"
    value {
      type: DT_INT64
    }
  }
  attr {
    key: "_output_shapes"
    value {
      list {
        shape {
        }
      }
    }
  }
  attr {
    key: "incompatible_shape_error"
    value {
      b: true
    }
  }
}
node {
  name: "seed2/Equal_1/y"
  op: "Const"
  device: "/device:CPU:0"
  attr {
    key: "_output_shapes"
    value {
      list {
        shape {
        }
      }
    }
  }
  attr {
    key: "dtype"
    value {
      type: DT_INT64
    }
  }
  attr {
    key: "value"
    value {
      tensor {
        dtype: DT_INT64
        tensor_shape {
        }
        int64_val: 0
      }
    }
  }
}
node {
  name: "seed2/Equal_1"
  op: "Equal"
  input: "seed2/Const"
  input: "seed2/Equal_1/y"
  device: "/device:CPU:0"
  attr {
    key: "T"
    value {
      type: DT_INT64
    }
  }
  attr {
    key: "_output_shapes"
    value {
      list {
        shape {
        }
      }
    }
  }
  attr {
    key: "incompatible_shape_error"
    value {
      b: true
    }
  }
}
node {
  name: "seed2/LogicalAnd"
  op: "LogicalAnd"
  input: "seed2/Equal"
  input: "seed2/Equal_1"
  device: "/device:CPU:0"
  attr {
    key: "_output_shapes"
    value {
      list {
        shape {
        }
      }
    }
  }
}
node {
  name: "seed2/Const_1"
  op: "Const"
  device: "/device:CPU:0"
  attr {
    key: "_output_shapes"
    value {
      list {
        shape {
        }
      }
    }
  }
  attr {
    key: "dtype"
    value {
      type: DT_INT64
    }
  }
  attr {
    key: "value"
    value {
      tensor {
        dtype: DT_INT64
        tensor_shape {
        }
        int64_val: 2147483647
      }
    }
  }
}
node {
  name: "seed2"
  op: "Select"
  input: "seed2/LogicalAnd"
  input: "seed2/Const_1"
  input: "seed2/Const"
  device: "/device:CPU:0"
  attr {
    key: "T"
    value {
      type: DT_INT64
    }
  }
  attr {
    key: "_output_shapes"
    value {
      list {
        shape {
        }
      }
    }
  }
}
node {
  name: "ShuffleDataset"
  op: "ShuffleDataset"
  input: "TensorSliceDataset"
  input: "buffer_size"
  input: "seed"
  input: "seed2"
  device: "/device:CPU:0"
  attr {
    key: "_output_shapes"
    value {
      list {
        shape {
        }
      }
    }
  }
  attr {
    key: "output_shapes"
    value {
      list {
        shape {
        }
        shape {
        }
      }
    }
  }
  attr {
    key: "output_types"
    value {
      list {
        type: DT_STRING
        type: DT_STRING
      }
    }
  }
  attr {
    key: "reshuffle_each_iteration"
    value {
      b: true
    }
  }
}
node {
  name: "num_shards"
  op: "Const"
  device: "/device:CPU:0"
  attr {
    key: "_output_shapes"
    value {
      list {
        shape {
        }
      }
    }
  }
  attr {
    key: "dtype"
    value {
      type: DT_INT64
    }
  }
  attr {
    key: "value"
    value {
      tensor {
        dtype: DT_INT64
        tensor_shape {
        }
        int64_val: 1
      }
    }
  }
}
node {
  name: "index"
  op: "Const"
  device: "/device:CPU:0"
  attr {
    key: "_output_shapes"
    value {
      list {
        shape {
        }
      }
    }
  }
  attr {
    key: "dtype"
    value {
      type: DT_INT64
    }
  }
  attr {
    key: "value"
    value {
      tensor {
        dtype: DT_INT64
        tensor_shape {
        }
        int64_val: 0
      }
    }
  }
}
node {
  name: "ShardDataset"
  op: "ShardDataset"
  input: "ShuffleDataset"
  input: "num_shards"
  input: "index"
  device: "/device:CPU:0"
  attr {
    key: "_output_shapes"
    value {
      list {
        shape {
        }
      }
    }
  }
  attr {
    key: "output_shapes"
    value {
      list {
        shape {
        }
        shape {
        }
      }
    }
  }
  attr {
    key: "output_types"
    value {
      list {
        type: DT_STRING
        type: DT_STRING
      }
    }
  }
  attr {
    key: "require_non_empty"
    value {
      b: false
    }
  }
}
node {
  name: "num_parallel_calls"
  op: "Const"
  device: "/device:CPU:0"
  attr {
    key: "_output_shapes"
    value {
      list {
        shape {
        }
      }
    }
  }
  attr {
    key: "dtype"
    value {
      type: DT_INT32
    }
  }
  attr {
    key: "value"
    value {
      tensor {
        dtype: DT_INT32
        tensor_shape {
        }
        int_val: -1
      }
    }
  }
}
node {
  name: "ParallelMapDataset"
  op: "ParallelMapDataset"
  input: "ShardDataset"
  input: "num_parallel_calls"
  device: "/device:CPU:0"
  attr {
    key: "Targuments"
    value {
      list {
      }
    }
  }
  attr {
    key: "_output_shapes"
    value {
      list {
        shape {
        }
      }
    }
  }
  attr {
    key: "f"
    value {
      func {
        name: "__inference_Dataset_map__map_func_set_random_wrapper_2670"
      }
    }
  }
  attr {
    key: "output_shapes"
    value {
      list {
        shape {
          dim {
            size: -1
          }
          dim {
            size: -1
          }
          dim {
            size: 3
          }
        }
        shape {
          dim {
            size: -1
          }
          dim {
            size: -1
          }
          dim {
            size: 1
          }
        }
      }
    }
  }
  attr {
    key: "output_types"
    value {
      list {
        type: DT_UINT8
        type: DT_UINT8
      }
    }
  }
  attr {
    key: "preserve_cardinality"
    value {
      b: false
    }
  }
  attr {
    key: "sloppy"
    value {
      b: false
    }
  }
  attr {
    key: "use_inter_op_parallelism"
    value {
      b: true
    }
  }
}
node {
  name: "hash_table"
  op: "HashTableV2"
  device: "/device:CPU:0"
  attr {
    key: "_output_shapes"
    value {
      list {
        shape {
        }
      }
    }
  }
  attr {
    key: "container"
    value {
      s: ""
    }
  }
  attr {
    key: "key_dtype"
    value {
      type: DT_INT64
    }
  }
  attr {
    key: "shared_name"
    value {
      s: ""
    }
  }
  attr {
    key: "use_node_name_sharing"
    value {
      b: false
    }
  }
  attr {
    key: "value_dtype"
    value {
      type: DT_INT64
    }
  }
}
node {
  name: "num_parallel_calls_1"
  op: "Const"
  device: "/device:CPU:0"
  attr {
    key: "_output_shapes"
    value {
      list {
        shape {
        }
      }
    }
  }
  attr {
    key: "dtype"
    value {
      type: DT_INT32
    }
  }
  attr {
    key: "value"
    value {
      tensor {
        dtype: DT_INT32
        tensor_shape {
        }
        int_val: -1
      }
    }
  }
}
node {
  name: "ParallelMapDataset_1"
  op: "ParallelMapDataset"
  input: "ParallelMapDataset"
  input: "hash_table"
  input: "num_parallel_calls_1"
  device: "/device:CPU:0"
  attr {
    key: "Targuments"
    value {
      list {
        type: DT_RESOURCE
      }
    }
  }
  attr {
    key: "_output_shapes"
    value {
      list {
        shape {
        }
      }
    }
  }
  attr {
    key: "f"
    value {
      func {
        name: "__inference_Dataset_map__map_func_set_random_wrapper_2687"
      }
    }
  }
  attr {
    key: "output_shapes"
    value {
      list {
        shape {
          dim {
            size: -1
          }
          dim {
            size: -1
          }
          dim {
            size: 3
          }
        }
        shape {
          dim {
            size: -1
          }
          dim {
            size: -1
          }
          dim {
            size: 1
          }
        }
      }
    }
  }
  attr {
    key: "output_types"
    value {
      list {
        type: DT_UINT8
        type: DT_INT64
      }
    }
  }
  attr {
    key: "preserve_cardinality"
    value {
      b: false
    }
  }
  attr {
    key: "sloppy"
    value {
      b: false
    }
  }
  attr {
    key: "use_inter_op_parallelism"
    value {
      b: true
    }
  }
}
node {
  name: "num_parallel_calls_2"
  op: "Const"
  device: "/device:CPU:0"
  attr {
    key: "_output_shapes"
    value {
      list {
        shape {
        }
      }
    }
  }
  attr {
    key: "dtype"
    value {
      type: DT_INT32
    }
  }
  attr {
    key: "value"
    value {
      tensor {
        dtype: DT_INT32
        tensor_shape {
        }
        int_val: -1
      }
    }
  }
}
node {
  name: "ParallelMapDataset_2"
  op: "ParallelMapDataset"
  input: "ParallelMapDataset_1"
  input: "num_parallel_calls_2"
  device: "/device:CPU:0"
  attr {
    key: "Targuments"
    value {
      list {
      }
    }
  }
  attr {
    key: "_output_shapes"
    value {
      list {
        shape {
        }
      }
    }
  }
  attr {
    key: "f"
    value {
      func {
        name: "__inference_Dataset_map__map_func_set_random_wrapper_2697"
      }
    }
  }
  attr {
    key: "output_shapes"
    value {
      list {
        shape {
          dim {
            size: -1
          }
          dim {
            size: -1
          }
          dim {
            size: 3
          }
        }
        shape {
          dim {
            size: -1
          }
          dim {
            size: -1
          }
          dim {
            size: 1
          }
        }
      }
    }
  }
  attr {
    key: "output_types"
    value {
      list {
        type: DT_UINT8
        type: DT_INT64
      }
    }
  }
  attr {
    key: "preserve_cardinality"
    value {
      b: false
    }
  }
  attr {
    key: "sloppy"
    value {
      b: false
    }
  }
  attr {
    key: "use_inter_op_parallelism"
    value {
      b: true
    }
  }
}
node {
  name: "num_parallel_calls_3"
  op: "Const"
  device: "/device:CPU:0"
  attr {
    key: "_output_shapes"
    value {
      list {
        shape {
        }
      }
    }
  }
  attr {
    key: "dtype"
    value {
      type: DT_INT32
    }
  }
  attr {
    key: "value"
    value {
      tensor {
        dtype: DT_INT32
        tensor_shape {
        }
        int_val: -1
      }
    }
  }
}
node {
  name: "ParallelMapDataset_3"
  op: "ParallelMapDataset"
  input: "ParallelMapDataset_2"
  input: "num_parallel_calls_3"
  device: "/device:CPU:0"
  attr {
    key: "Targuments"
    value {
      list {
      }
    }
  }
  attr {
    key: "_output_shapes"
    value {
      list {
        shape {
        }
      }
    }
  }
  attr {
    key: "f"
    value {
      func {
        name: "__inference_Dataset_map__map_func_set_random_wrapper_2707"
      }
    }
  }
  attr {
    key: "output_shapes"
    value {
      list {
        shape {
          dim {
            size: -1
          }
          dim {
            size: -1
          }
          dim {
            size: 3
          }
        }
        shape {
          dim {
            size: -1
          }
          dim {
            size: -1
          }
          dim {
            size: 1
          }
        }
      }
    }
  }
  attr {
    key: "output_types"
    value {
      list {
        type: DT_FLOAT
        type: DT_FLOAT
      }
    }
  }
  attr {
    key: "preserve_cardinality"
    value {
      b: false
    }
  }
  attr {
    key: "sloppy"
    value {
      b: false
    }
  }
  attr {
    key: "use_inter_op_parallelism"
    value {
      b: true
    }
  }
}
node {
  name: "num_parallel_calls_4"
  op: "Const"
  device: "/device:CPU:0"
  attr {
    key: "_output_shapes"
    value {
      list {
        shape {
        }
      }
    }
  }
  attr {
    key: "dtype"
    value {
      type: DT_INT32
    }
  }
  attr {
    key: "value"
    value {
      tensor {
        dtype: DT_INT32
        tensor_shape {
        }
        int_val: -1
      }
    }
  }
}
node {
  name: "ParallelMapDataset_4"
  op: "ParallelMapDataset"
  input: "ParallelMapDataset_3"
  input: "num_parallel_calls_4"
  device: "/device:CPU:0"
  attr {
    key: "Targuments"
    value {
      list {
      }
    }
  }
  attr {
    key: "_output_shapes"
    value {
      list {
        shape {
        }
      }
    }
  }
  attr {
    key: "f"
    value {
      func {
        name: "__inference_Dataset_map__map_func_set_random_wrapper_2725"
      }
    }
  }
  attr {
    key: "output_shapes"
    value {
      list {
        shape {
          dim {
            size: 512
          }
          dim {
            size: 512
          }
          dim {
            size: 3
          }
        }
        shape {
          dim {
            size: 512
          }
          dim {
            size: 512
          }
          dim {
            size: 1
          }
        }
      }
    }
  }
  attr {
    key: "output_types"
    value {
      list {
        type: DT_FLOAT
        type: DT_FLOAT
      }
    }
  }
  attr {
    key: "preserve_cardinality"
    value {
      b: false
    }
  }
  attr {
    key: "sloppy"
    value {
      b: false
    }
  }
  attr {
    key: "use_inter_op_parallelism"
    value {
      b: true
    }
  }
}
node {
  name: "num_parallel_calls_5"
  op: "Const"
  device: "/device:CPU:0"
  attr {
    key: "_output_shapes"
    value {
      list {
        shape {
        }
      }
    }
  }
  attr {
    key: "dtype"
    value {
      type: DT_INT32
    }
  }
  attr {
    key: "value"
    value {
      tensor {
        dtype: DT_INT32
        tensor_shape {
        }
        int_val: -1
      }
    }
  }
}
node {
  name: "ParallelMapDataset_5"
  op: "ParallelMapDataset"
  input: "ParallelMapDataset_4"
  input: "num_parallel_calls_5"
  device: "/device:CPU:0"
  attr {
    key: "Targuments"
    value {
      list {
      }
    }
  }
  attr {
    key: "_output_shapes"
    value {
      list {
        shape {
        }
      }
    }
  }
  attr {
    key: "f"
    value {
      func {
        name: "__inference_Dataset_map__map_func_set_random_wrapper_2737"
      }
    }
  }
  attr {
    key: "output_shapes"
    value {
      list {
        shape {
          dim {
            size: 512
          }
          dim {
            size: 512
          }
          dim {
            size: 3
          }
        }
        shape {
          dim {
            size: 512
          }
          dim {
            size: 512
          }
          dim {
            size: 1
          }
        }
      }
    }
  }
  attr {
    key: "output_types"
    value {
      list {
        type: DT_FLOAT
        type: DT_FLOAT
      }
    }
  }
  attr {
    key: "preserve_cardinality"
    value {
      b: false
    }
  }
  attr {
    key: "sloppy"
    value {
      b: false
    }
  }
  attr {
    key: "use_inter_op_parallelism"
    value {
      b: true
    }
  }
}
node {
  name: "num_parallel_calls_6"
  op: "Const"
  device: "/device:CPU:0"
  attr {
    key: "_output_shapes"
    value {
      list {
        shape {
        }
      }
    }
  }
  attr {
    key: "dtype"
    value {
      type: DT_INT32
    }
  }
  attr {
    key: "value"
    value {
      tensor {
        dtype: DT_INT32
        tensor_shape {
        }
        int_val: -1
      }
    }
  }
}
node {
  name: "ParallelMapDataset_6"
  op: "ParallelMapDataset"
  input: "ParallelMapDataset_5"
  input: "num_parallel_calls_6"
  device: "/device:CPU:0"
  attr {
    key: "Targuments"
    value {
      list {
      }
    }
  }
  attr {
    key: "_output_shapes"
    value {
      list {
        shape {
        }
      }
    }
  }
  attr {
    key: "f"
    value {
      func {
        name: "__inference_Dataset_map__map_func_set_random_wrapper_2929"
      }
    }
  }
  attr {
    key: "output_shapes"
    value {
      list {
        shape {
          dim {
            size: 512
          }
          dim {
            size: 512
          }
          dim {
            size: 3
          }
        }
        shape {
          dim {
            size: 512
          }
          dim {
            size: 512
          }
          dim {
            size: 1
          }
        }
      }
    }
  }
  attr {
    key: "output_types"
    value {
      list {
        type: DT_FLOAT
        type: DT_FLOAT
      }
    }
  }
  attr {
    key: "preserve_cardinality"
    value {
      b: false
    }
  }
  attr {
    key: "sloppy"
    value {
      b: false
    }
  }
  attr {
    key: "use_inter_op_parallelism"
    value {
      b: true
    }
  }
}
node {
  name: "num_parallel_calls_7"
  op: "Const"
  device: "/device:CPU:0"
  attr {
    key: "_output_shapes"
    value {
      list {
        shape {
        }
      }
    }
  }
  attr {
    key: "dtype"
    value {
      type: DT_INT32
    }
  }
  attr {
    key: "value"
    value {
      tensor {
        dtype: DT_INT32
        tensor_shape {
        }
        int_val: -1
      }
    }
  }
}
node {
  name: "ParallelMapDataset_7"
  op: "ParallelMapDataset"
  input: "ParallelMapDataset_6"
  input: "num_parallel_calls_7"
  device: "/device:CPU:0"
  attr {
    key: "Targuments"
    value {
      list {
      }
    }
  }
  attr {
    key: "_output_shapes"
    value {
      list {
        shape {
        }
      }
    }
  }
  attr {
    key: "f"
    value {
      func {
        name: "__inference_Dataset_map__map_func_set_random_wrapper_2937"
      }
    }
  }
  attr {
    key: "output_shapes"
    value {
      list {
        shape {
          dim {
            size: 512
          }
          dim {
            size: 512
          }
          dim {
            size: 3
          }
        }
        shape {
          dim {
            size: 512
          }
          dim {
            size: 512
          }
          dim {
            size: 1
          }
        }
      }
    }
  }
  attr {
    key: "output_types"
    value {
      list {
        type: DT_FLOAT
        type: DT_FLOAT
      }
    }
  }
  attr {
    key: "preserve_cardinality"
    value {
      b: false
    }
  }
  attr {
    key: "sloppy"
    value {
      b: false
    }
  }
  attr {
    key: "use_inter_op_parallelism"
    value {
      b: true
    }
  }
}
node {
  name: "num_parallel_calls_8"
  op: "Const"
  device: "/device:CPU:0"
  attr {
    key: "_output_shapes"
    value {
      list {
        shape {
        }
      }
    }
  }
  attr {
    key: "dtype"
    value {
      type: DT_INT32
    }
  }
  attr {
    key: "value"
    value {
      tensor {
        dtype: DT_INT32
        tensor_shape {
        }
        int_val: -1
      }
    }
  }
}
node {
  name: "ParallelMapDataset_8"
  op: "ParallelMapDataset"
  input: "ParallelMapDataset_7"
  input: "num_parallel_calls_8"
  device: "/device:CPU:0"
  attr {
    key: "Targuments"
    value {
      list {
      }
    }
  }
  attr {
    key: "_output_shapes"
    value {
      list {
        shape {
        }
      }
    }
  }
  attr {
    key: "f"
    value {
      func {
        name: "__inference_Dataset_map__map_func_set_random_wrapper_2949"
      }
    }
  }
  attr {
    key: "output_shapes"
    value {
      list {
        shape {
          dim {
            size: 3
          }
          dim {
            size: 512
          }
          dim {
            size: 512
          }
        }
        shape {
          dim {
            size: 1
          }
          dim {
            size: 512
          }
          dim {
            size: 512
          }
        }
      }
    }
  }
  attr {
    key: "output_types"
    value {
      list {
        type: DT_FLOAT
        type: DT_FLOAT
      }
    }
  }
  attr {
    key: "preserve_cardinality"
    value {
      b: false
    }
  }
  attr {
    key: "sloppy"
    value {
      b: false
    }
  }
  attr {
    key: "use_inter_op_parallelism"
    value {
      b: true
    }
  }
}
node {
  name: "num_parallel_calls_9"
  op: "Const"
  device: "/device:CPU:0"
  attr {
    key: "_output_shapes"
    value {
      list {
        shape {
        }
      }
    }
  }
  attr {
    key: "dtype"
    value {
      type: DT_INT32
    }
  }
  attr {
    key: "value"
    value {
      tensor {
        dtype: DT_INT32
        tensor_shape {
        }
        int_val: -1
      }
    }
  }
}
node {
  name: "ParallelMapDataset_9"
  op: "ParallelMapDataset"
  input: "ParallelMapDataset_8"
  input: "num_parallel_calls_9"
  device: "/device:CPU:0"
  attr {
    key: "Targuments"
    value {
      list {
      }
    }
  }
  attr {
    key: "_output_shapes"
    value {
      list {
        shape {
        }
      }
    }
  }
  attr {
    key: "f"
    value {
      func {
        name: "__inference_Dataset_map__map_func_set_random_wrapper_2967"
      }
    }
  }
  attr {
    key: "output_shapes"
    value {
      list {
        shape {
          dim {
            size: 3
          }
          dim {
            size: 512
          }
          dim {
            size: 512
          }
        }
        shape {
          dim {
            size: 2
          }
          dim {
            size: 512
          }
          dim {
            size: 512
          }
        }
      }
    }
  }
  attr {
    key: "output_types"
    value {
      list {
        type: DT_FLOAT
        type: DT_FLOAT
      }
    }
  }
  attr {
    key: "preserve_cardinality"
    value {
      b: false
    }
  }
  attr {
    key: "sloppy"
    value {
      b: false
    }
  }
  attr {
    key: "use_inter_op_parallelism"
    value {
      b: true
    }
  }
}
node {
  name: "IgnoreErrorsDataset"
  op: "IgnoreErrorsDataset"
  input: "ParallelMapDataset_9"
  device: "/device:CPU:0"
  attr {
    key: "_output_shapes"
    value {
      list {
        shape {
        }
      }
    }
  }
  attr {
    key: "output_shapes"
    value {
      list {
        shape {
          dim {
            size: 3
          }
          dim {
            size: 512
          }
          dim {
            size: 512
          }
        }
        shape {
          dim {
            size: 2
          }
          dim {
            size: 512
          }
          dim {
            size: 512
          }
        }
      }
    }
  }
  attr {
    key: "output_types"
    value {
      list {
        type: DT_FLOAT
        type: DT_FLOAT
      }
    }
  }
}
node {
  name: "count"
  op: "Const"
  device: "/device:CPU:0"
  attr {
    key: "_output_shapes"
    value {
      list {
        shape {
        }
      }
    }
  }
  attr {
    key: "dtype"
    value {
      type: DT_INT64
    }
  }
  attr {
    key: "value"
    value {
      tensor {
        dtype: DT_INT64
        tensor_shape {
        }
        int64_val: -1
      }
    }
  }
}
node {
  name: "RepeatDataset"
  op: "RepeatDataset"
  input: "IgnoreErrorsDataset"
  input: "count"
  device: "/device:CPU:0"
  attr {
    key: "_output_shapes"
    value {
      list {
        shape {
        }
      }
    }
  }
  attr {
    key: "output_shapes"
    value {
      list {
        shape {
          dim {
            size: 3
          }
          dim {
            size: 512
          }
          dim {
            size: 512
          }
        }
        shape {
          dim {
            size: 2
          }
          dim {
            size: 512
          }
          dim {
            size: 512
          }
        }
      }
    }
  }
  attr {
    key: "output_types"
    value {
      list {
        type: DT_FLOAT
        type: DT_FLOAT
      }
    }
  }
}
node {
  name: "batch_size"
  op: "Const"
  device: "/device:CPU:0"
  attr {
    key: "_output_shapes"
    value {
      list {
        shape {
        }
      }
    }
  }
  attr {
    key: "dtype"
    value {
      type: DT_INT64
    }
  }
  attr {
    key: "value"
    value {
      tensor {
        dtype: DT_INT64
        tensor_shape {
        }
        int64_val: 1
      }
    }
  }
}
node {
  name: "drop_remainder"
  op: "Const"
  device: "/device:CPU:0"
  attr {
    key: "_output_shapes"
    value {
      list {
        shape {
        }
      }
    }
  }
  attr {
    key: "dtype"
    value {
      type: DT_BOOL
    }
  }
  attr {
    key: "value"
    value {
      tensor {
        dtype: DT_BOOL
        tensor_shape {
        }
        bool_val: false
      }
    }
  }
}
node {
  name: "BatchDatasetV2"
  op: "BatchDatasetV2"
  input: "RepeatDataset"
  input: "batch_size"
  input: "drop_remainder"
  device: "/device:CPU:0"
  attr {
    key: "_output_shapes"
    value {
      list {
        shape {
        }
      }
    }
  }
  attr {
    key: "output_shapes"
    value {
      list {
        shape {
          dim {
            size: -1
          }
          dim {
            size: 3
          }
          dim {
            size: 512
          }
          dim {
            size: 512
          }
        }
        shape {
          dim {
            size: -1
          }
          dim {
            size: 2
          }
          dim {
            size: 512
          }
          dim {
            size: 512
          }
        }
      }
    }
  }
  attr {
    key: "output_types"
    value {
      list {
        type: DT_FLOAT
        type: DT_FLOAT
      }
    }
  }
  attr {
    key: "parallel_copy"
    value {
      b: false
    }
  }
}
node {
  name: "buffer_size_1"
  op: "Const"
  device: "/device:CPU:0"
  attr {
    key: "_output_shapes"
    value {
      list {
        shape {
        }
      }
    }
  }
  attr {
    key: "dtype"
    value {
      type: DT_INT64
    }
  }
  attr {
    key: "value"
    value {
      tensor {
        dtype: DT_INT64
        tensor_shape {
        }
        int64_val: -1
      }
    }
  }
}
node {
  name: "PrefetchDataset"
  op: "PrefetchDataset"
  input: "BatchDatasetV2"
  input: "buffer_size_1"
  device: "/device:CPU:0"
  attr {
    key: "_output_shapes"
    value {
      list {
        shape {
        }
      }
    }
  }
  attr {
    key: "legacy_autotune"
    value {
      b: true
    }
  }
  attr {
    key: "output_shapes"
    value {
      list {
        shape {
          dim {
            size: -1
          }
          dim {
            size: 3
          }
          dim {
            size: 512
          }
          dim {
            size: 512
          }
        }
        shape {
          dim {
            size: -1
          }
          dim {
            size: 2
          }
          dim {
            size: 512
          }
          dim {
            size: 512
          }
        }
      }
    }
  }
  attr {
    key: "output_types"
    value {
      list {
        type: DT_FLOAT
        type: DT_FLOAT
      }
    }
  }
  attr {
    key: "slack_period"
    value {
      i: 0
    }
  }
}
node {
  name: "optimizations"
  op: "Const"
  attr {
    key: "_output_shapes"
    value {
      list {
        shape {
          dim {
            size: 3
          }
        }
      }
    }
  }
  attr {
    key: "dtype"
    value {
      type: DT_STRING
    }
  }
  attr {
    key: "value"
    value {
      tensor {
        dtype: DT_STRING
        tensor_shape {
          dim {
            size: 3
          }
        }
        string_val: "map_and_batch_fusion"
        string_val: "noop_elimination"
        string_val: "shuffle_and_repeat_fusion"
      }
    }
  }
}
node {
  name: "OptimizeDataset"
  op: "OptimizeDataset"
  input: "PrefetchDataset"
  input: "optimizations"
  attr {
    key: "_output_shapes"
    value {
      list {
        shape {
        }
      }
    }
  }
  attr {
    key: "optimization_configs"
    value {
      list {
        s: "map_vectorization:use_choose_fastest:false"
      }
    }
  }
  attr {
    key: "output_shapes"
    value {
      list {
        shape {
          dim {
            size: -1
          }
          dim {
            size: 3
          }
          dim {
            size: 512
          }
          dim {
            size: 512
          }
        }
        shape {
          dim {
            size: -1
          }
          dim {
            size: 2
          }
          dim {
            size: 512
          }
          dim {
            size: 512
          }
        }
      }
    }
  }
  attr {
    key: "output_types"
    value {
      list {
        type: DT_FLOAT
        type: DT_FLOAT
      }
    }
  }
}
node {
  name: "ModelDataset"
  op: "ModelDataset"
  input: "OptimizeDataset"
  attr {
    key: "_output_shapes"
    value {
      list {
        shape {
        }
      }
    }
  }
  attr {
    key: "algorithm"
    value {
      i: 0
    }
  }
  attr {
    key: "cpu_budget"
    value {
      i: 0
    }
  }
  attr {
    key: "output_shapes"
    value {
      list {
        shape {
          dim {
            size: -1
          }
          dim {
            size: 3
          }
          dim {
            size: 512
          }
          dim {
            size: 512
          }
        }
        shape {
          dim {
            size: -1
          }
          dim {
            size: 2
          }
          dim {
            size: 512
          }
          dim {
            size: 512
          }
        }
      }
    }
  }
  attr {
    key: "output_types"
    value {
      list {
        type: DT_FLOAT
        type: DT_FLOAT
      }
    }
  }
}
node {
  name: "IteratorV2"
  op: "IteratorV2"
  device: "/device:CPU:0"
  attr {
    key: "_output_shapes"
    value {
      list {
        shape {
        }
      }
    }
  }
  attr {
    key: "container"
    value {
      s: ""
    }
  }
  attr {
    key: "output_shapes"
    value {
      list {
        shape {
          dim {
            size: -1
          }
          dim {
            size: 3
          }
          dim {
            size: 512
          }
          dim {
            size: 512
          }
        }
        shape {
          dim {
            size: -1
          }
          dim {
            size: 2
          }
          dim {
            size: 512
          }
          dim {
            size: 512
          }
        }
      }
    }
  }
  attr {
    key: "output_types"
    value {
      list {
        type: DT_FLOAT
        type: DT_FLOAT
      }
    }
  }
  attr {
    key: "shared_name"
    value {
      s: ""
    }
  }
}
node {
  name: "MakeIterator"
  op: "MakeIterator"
  input: "ModelDataset"
  input: "IteratorV2"
  device: "/device:CPU:0"
}
node {
  name: "IteratorToStringHandle"
  op: "IteratorToStringHandle"
  input: "IteratorV2"
  device: "/device:CPU:0"
  attr {
    key: "_output_shapes"
    value {
      list {
        shape {
        }
      }
    }
  }
}
node {
  name: "IteratorGetNext"
  op: "IteratorGetNext"
  input: "IteratorV2"
  device: "/device:CPU:0"
  attr {
    key: "_output_shapes"
    value {
      list {
        shape {
          dim {
            size: -1
          }
          dim {
            size: 3
          }
          dim {
            size: 512
          }
          dim {
            size: 512
          }
        }
        shape {
          dim {
            size: -1
          }
          dim {
            size: 2
          }
          dim {
            size: 512
          }
          dim {
            size: 512
          }
        }
      }
    }
  }
  attr {
    key: "output_shapes"
    value {
      list {
        shape {
          dim {
            size: -1
          }
          dim {
            size: 3
          }
          dim {
            size: 512
          }
          dim {
            size: 512
          }
        }
        shape {
          dim {
            size: -1
          }
          dim {
            size: 2
          }
          dim {
            size: 512
          }
          dim {
            size: 512
          }
        }
      }
    }
  }
  attr {
    key: "output_types"
    value {
      list {
        type: DT_FLOAT
        type: DT_FLOAT
      }
    }
  }
}
node {
  name: "input_1"
  op: "Placeholder"
  device: "/device:GPU:0"
  attr {
    key: "_output_shapes"
    value {
      list {
        shape {
          dim {
            size: -1
          }
          dim {
            size: 3
          }
          dim {
            size: 512
          }
          dim {
            size: 512
          }
        }
      }
    }
  }
  attr {
    key: "dtype"
    value {
      type: DT_FLOAT
    }
  }
  attr {
    key: "shape"
    value {
      shape {
        dim {
          size: -1
        }
        dim {
          size: 3
        }
        dim {
          size: 512
        }
        dim {
          size: 512
        }
      }
    }
  }
}
node {
  name: "conv1/random_uniform/shape"
  op: "Const"
  device: "/device:GPU:0"
  attr {
    key: "_output_shapes"
    value {
      list {
        shape {
          dim {
            size: 4
          }
        }
      }
    }
  }
  attr {
    key: "dtype"
    value {
      type: DT_INT32
    }
  }
  attr {
    key: "value"
    value {
      tensor {
        dtype: DT_INT32
        tensor_shape {
          dim {
            size: 4
          }
        }
        tensor_content: "\007\000\000\000\007\000\000\000\003\000\000\000@\000\000\000"
      }
    }
  }
}
node {
  name: "conv1/random_uniform/min"
  op: "Const"
  device: "/device:GPU:0"
  attr {
    key: "_output_shapes"
    value {
      list {
        shape {
        }
      }
    }
  }
  attr {
    key: "dtype"
    value {
      type: DT_FLOAT
    }
  }
  attr {
    key: "value"
    value {
      tensor {
        dtype: DT_FLOAT
        tensor_shape {
        }
        float_val: -0.04275039955973625
      }
    }
  }
}
node {
  name: "conv1/random_uniform/max"
  op: "Const"
  device: "/device:GPU:0"
  attr {
    key: "_output_shapes"
    value {
      list {
        shape {
        }
      }
    }
  }
  attr {
    key: "dtype"
    value {
      type: DT_FLOAT
    }
  }
  attr {
    key: "value"
    value {
      tensor {
        dtype: DT_FLOAT
        tensor_shape {
        }
        float_val: 0.04275039955973625
      }
    }
  }
}
node {
  name: "conv1/random_uniform/RandomUniform"
  op: "RandomUniform"
  input: "conv1/random_uniform/shape"
  device: "/device:GPU:0"
  attr {
    key: "T"
    value {
      type: DT_INT32
    }
  }
  attr {
    key: "_output_shapes"
    value {
      list {
        shape {
          dim {
            size: 7
          }
          dim {
            size: 7
          }
          dim {
            size: 3
          }
          dim {
            size: 64
          }
        }
      }
    }
  }
  attr {
    key: "dtype"
    value {
      type: DT_FLOAT
    }
  }
  attr {
    key: "seed"
    value {
      i: 87654321
    }
  }
  attr {
    key: "seed2"
    value {
      i: 7443973
    }
  }
}
node {
  name: "conv1/random_uniform/sub"
  op: "Sub"
  input: "conv1/random_uniform/max"
  input: "conv1/random_uniform/min"
  device: "/device:GPU:0"
  attr {
    key: "T"
    value {
      type: DT_FLOAT
    }
  }
  attr {
    key: "_output_shapes"
    value {
      list {
        shape {
        }
      }
    }
  }
}
node {
  name: "conv1/random_uniform/mul"
  op: "Mul"
  input: "conv1/random_uniform/RandomUniform"
  input: "conv1/random_uniform/sub"
  device: "/device:GPU:0"
  attr {
    key: "T"
    value {
      type: DT_FLOAT
    }
  }
  attr {
    key: "_output_shapes"
    value {
      list {
        shape {
          dim {
            size: 7
          }
          dim {
            size: 7
          }
          dim {
            size: 3
          }
          dim {
            size: 64
          }
        }
      }
    }
  }
}
node {
  name: "conv1/random_uniform"
  op: "Add"
  input: "conv1/random_uniform/mul"
  input: "conv1/random_uniform/min"
  device: "/device:GPU:0"
  attr {
    key: "T"
    value {
      type: DT_FLOAT
    }
  }
  attr {
    key: "_output_shapes"
    value {
      list {
        shape {
          dim {
            size: 7
          }
          dim {
            size: 7
          }
          dim {
            size: 3
          }
          dim {
            size: 64
          }
        }
      }
    }
  }
}
node {
  name: "conv1/kernel"
  op: "VariableV2"
  device: "/device:GPU:0"
  attr {
    key: "_output_shapes"
    value {
      list {
        shape {
          dim {
            size: 7
          }
          dim {
            size: 7
          }
          dim {
            size: 3
          }
          dim {
            size: 64
          }
        }
      }
    }
  }
  attr {
    key: "container"
    value {
      s: ""
    }
  }
  attr {
    key: "dtype"
    value {
      type: DT_FLOAT
    }
  }
  attr {
    key: "shape"
    value {
      shape {
        dim {
          size: 7
        }
        dim {
          size: 7
        }
        dim {
          size: 3
        }
        dim {
          size: 64
        }
      }
    }
  }
  attr {
    key: "shared_name"
    value {
      s: ""
    }
  }
}
node {
  name: "conv1/kernel/Assign"
  op: "Assign"
  input: "conv1/kernel"
  input: "conv1/random_uniform"
  device: "/device:GPU:0"
  attr {
    key: "T"
    value {
      type: DT_FLOAT
    }
  }
  attr {
    key: "_class"
    value {
      list {
        s: "loc:@conv1/kernel"
      }
    }
  }
  attr {
    key: "_output_shapes"
    value {
      list {
        shape {
          dim {
            size: 7
          }
          dim {
            size: 7
          }
          dim {
            size: 3
          }
          dim {
            size: 64
          }
        }
      }
    }
  }
  attr {
    key: "use_locking"
    value {
      b: true
    }
  }
  attr {
    key: "validate_shape"
    value {
      b: true
    }
  }
}
node {
  name: "conv1/kernel/read"
  op: "Identity"
  input: "conv1/kernel"
  device: "/device:GPU:0"
  attr {
    key: "T"
    value {
      type: DT_FLOAT
    }
  }
  attr {
    key: "_class"
    value {
      list {
        s: "loc:@conv1/kernel"
      }
    }
  }
  attr {
    key: "_output_shapes"
    value {
      list {
        shape {
          dim {
            size: 7
          }
          dim {
            size: 7
          }
          dim {
            size: 3
          }
          dim {
            size: 64
          }
        }
      }
    }
  }
}
node {
  name: "conv1/Const"
  op: "Const"
  device: "/device:GPU:0"
  attr {
    key: "_output_shapes"
    value {
      list {
        shape {
          dim {
            size: 64
          }
        }
      }
    }
  }
  attr {
    key: "dtype"
    value {
      type: DT_FLOAT
    }
  }
  attr {
    key: "value"
    value {
      tensor {
        dtype: DT_FLOAT
        tensor_shape {
          dim {
            size: 64
          }
        }
        float_val: 0.0
      }
    }
  }
}
node {
  name: "conv1/bias"
  op: "VariableV2"
  device: "/device:GPU:0"
  attr {
    key: "_output_shapes"
    value {
      list {
        shape {
          dim {
            size: 64
          }
        }
      }
    }
  }
  attr {
    key: "container"
    value {
      s: ""
    }
  }
  attr {
    key: "dtype"
    value {
      type: DT_FLOAT
    }
  }
  attr {
    key: "shape"
    value {
      shape {
        dim {
          size: 64
        }
      }
    }
  }
  attr {
    key: "shared_name"
    value {
      s: ""
    }
  }
}
node {
  name: "conv1/bias/Assign"
  op: "Assign"
  input: "conv1/bias"
  input: "conv1/Const"
  device: "/device:GPU:0"
  attr {
    key: "T"
    value {
      type: DT_FLOAT
    }
  }
  attr {
    key: "_class"
    value {
      list {
        s: "loc:@conv1/bias"
      }
    }
  }
  attr {
    key: "_output_shapes"
    value {
      list {
        shape {
          dim {
            size: 64
          }
        }
      }
    }
  }
  attr {
    key: "use_locking"
    value {
      b: true
    }
  }
  attr {
    key: "validate_shape"
    value {
      b: true
    }
  }
}
node {
  name: "conv1/bias/read"
  op: "Identity"
  input: "conv1/bias"
  device: "/device:GPU:0"
  attr {
    key: "T"
    value {
      type: DT_FLOAT
    }
  }
  attr {
    key: "_class"
    value {
      list {
        s: "loc:@conv1/bias"
      }
    }
  }
  attr {
    key: "_output_shapes"
    value {
      list {
        shape {
          dim {
            size: 64
          }
        }
      }
    }
  }
}
node {
  name: "conv1/Pad/paddings"
  op: "Const"
  device: "/device:GPU:0"
  attr {
    key: "_output_shapes"
    value {
      list {
        shape {
          dim {
            size: 4
          }
          dim {
            size: 2
          }
        }
      }
    }
  }
  attr {
    key: "dtype"
    value {
      type: DT_INT32
    }
  }
  attr {
    key: "value"
    value {
      tensor {
        dtype: DT_INT32
        tensor_shape {
          dim {
            size: 4
          }
          dim {
            size: 2
          }
        }
        tensor_content: "…"
      }
    }
  }
}
node {
  name: "conv1/Pad"
  op: "Pad"
  input: "input_1"
  input: "conv1/Pad/paddings"
  device: "/device:GPU:0"
  attr {
    key: "T"
    value {
      type: DT_FLOAT
    }
  }
  attr {
    key: "Tpaddings"
    value {
      type: DT_INT32
    }
  }
  attr {
    key: "_output_shapes"
    value {
      list {
        shape {
          dim {
            size: -1
          }
          dim {
            size: 3
          }
          dim {
            size: 518
          }
          dim {
            size: 518
          }
        }
      }
    }
  }
}
node {
  name: "conv1/convolution"
  op: "Conv2D"
  input: "conv1/Pad"
  input: "conv1/kernel/read"
  device: "/device:GPU:0"
  attr {
    key: "T"
    value {
      type: DT_FLOAT
    }
  }
  attr {
    key: "_output_shapes"
    value {
      list {
        shape {
          dim {
            size: -1
          }
          dim {
            size: 64
          }
          dim {
            size: 256
          }
          dim {
            size: 256
          }
        }
      }
    }
  }
  attr {
    key: "data_format"
    value {
      s: "NCHW"
    }
  }
  attr {
    key: "dilations"
    value {
      list {
        i: 1
        i: 1
        i: 1
        i: 1
      }
    }
  }
  attr {
    key: "explicit_paddings"
    value {
      list {
      }
    }
  }
  attr {
    key: "padding"
    value {
      s: "VALID"
    }
  }
  attr {
    key: "strides"
    value {
      list {
        i: 1
        i: 1
        i: 2
        i: 2
      }
    }
  }
  attr {
    key: "use_cudnn_on_gpu"
    value {
      b: true
    }
  }
}
node {
  name: "conv1/BiasAdd"
  op: "BiasAdd"
  input: "conv1/convolution"
  input: "conv1/bias/read"
  device: "/device:GPU:0"
  attr {
    key: "T"
    value {
      type: DT_FLOAT
    }
  }
  attr {
    key: "_output_shapes"
    value {
      list {
        shape {
          dim {
            size: -1
          }
          dim {
            size: 64
          }
          dim {
            size: 256
          }
          dim {
            size: 256
          }
        }
      }
    }
  }
  attr {
    key: "data_format"
    value {
      s: "NCHW"
    }
  }
}
node {
  name: "activation_1/Relu"
  op: "Relu"
  input: "conv1/BiasAdd"
  device: "/device:GPU:0"
  attr {
    key: "T"
    value {
      type: DT_FLOAT
    }
  }
  attr {
    key: "_output_shapes"
    value {
      list {
        shape {
          dim {
            size: -1
          }
          dim {
            size: 64
          }
          dim {
            size: 256
          }
          dim {
            size: 256
          }
        }
      }
    }
  }
}
node {
  name: "block_1a_conv_1/random_uniform/shape"
  op: "Const"
  device: "/device:GPU:0"
  attr {
    key: "_output_shapes"
    value {
      list {
        shape {
          dim {
            size: 4
          }
        }
      }
    }
  }
  attr {
    key: "dtype"
    value {
      type: DT_INT32
    }
  }
  attr {
    key: "value"
    value {
      tensor {
        dtype: DT_INT32
        tensor_shape {
          dim {
            size: 4
          }
        }
        tensor_content: "\003\000\000\000\003\000\000\000@\000\000\000@\000\000\000"
      }
    }
  }
}
node {
  name: "block_1a_conv_1/random_uniform/min"
  op: "Const"
  device: "/device:GPU:0"
  attr {
    key: "_output_shapes"
    value {
      list {
        shape {
        }
      }
    }
  }
  attr {
    key: "dtype"
    value {
      type: DT_FLOAT
    }
  }
  attr {
    key: "value"
    value {
      tensor {
        dtype: DT_FLOAT
        tensor_shape {
        }
        float_val: -0.07216878235340118
      }
    }
  }
}
node {
  name: "block_1a_conv_1/random_uniform/max"
  op: "Const"
  device: "/device:GPU:0"
  attr {
    key: "_output_shapes"
    value {
      list {
        shape {
        }
      }
    }
  }
  attr {
    key: "dtype"
    value {
      type: DT_FLOAT
    }
  }
  attr {
    key: "value"
    value {
      tensor {
        dtype: DT_FLOAT
        tensor_shape {
        }
        float_val: 0.07216878235340118
      }
    }
  }
}
node {
  name: "block_1a_conv_1/random_uniform/RandomUniform"
  op: "RandomUniform"
  input: "block_1a_conv_1/random_uniform/shape"
  device: "/device:GPU:0"
  attr {
    key: "T"
    value {
      type: DT_INT32
    }
  }
  attr {
    key: "_output_shapes"
    value {
      list {
        shape {
          dim {
            size: 3
          }
          dim {
            size: 3
          }
          dim {
            size: 64
          }
          dim {
            size: 64
          }
        }
      }
    }
  }
  attr {
    key: "dtype"
    value {
      type: DT_FLOAT
    }
  }
  attr {
    key: "seed"
    value {
      i: 87654321
    }
  }
  attr {
    key: "seed2"
    value {
      i: 158856
    }
  }
}
node {
  name: "block_1a_conv_1/random_uniform/sub"
  op: "Sub"
  input: "block_1a_conv_1/random_uniform/max"
  input: "block_1a_conv_1/random_uniform/min"
  device: "/device:GPU:0"
  attr {
    key: "T"
    value {
      type: DT_FLOAT
    }
  }
  attr {
    key: "_output_shapes"
    value {
      list {
        shape {
        }
      }
    }
  }
}
node {
  name: "block_1a_conv_1/random_uniform/mul"
  op: "Mul"
  input: "block_1a_conv_1/random_uniform/RandomUniform"
  input: "block_1a_conv_1/random_uniform/sub"
  device: "/device:GPU:0"
  attr {
    key: "T"
    value {
      type: DT_FLOAT
    }
  }
  attr {
    key: "_output_shapes"
    value {
      list {
        shape {
          dim {
            size: 3
          }
          dim {
            size: 3
          }
          dim {
            size: 64
          }
          dim {
            size: 64
          }
        }
      }
    }
  }
}
node {
  name: "block_1a_conv_1/random_uniform"
  op: "Add"
  input: "block_1a_conv_1/random_uniform/mul"
  input: "block_1a_conv_1/random_uniform/min"
  device: "/device:GPU:0"
  attr {
    key: "T"
    value {
      type: DT_FLOAT
    }
  }
  attr {
    key: "_output_shapes"
    value {
      list {
        shape {
          dim {
            size: 3
          }
          dim {
            size: 3
          }
          dim {
            size: 64
          }
          dim {
            size: 64
          }
        }
      }
    }
  }
}
node {
  name: "block_1a_conv_1/kernel"
  op: "VariableV2"
  device: "/device:GPU:0"
  attr {
    key: "_output_shapes"
    value {
      list {
        shape {
          dim {
            size: 3
          }
          dim {
            size: 3
          }
          dim {
            size: 64
          }
          dim {
            size: 64
          }
        }
      }
    }
  }
  attr {
    key: "container"
    value {
      s: ""
    }
  }
  attr {
    key: "dtype"
    value {
      type: DT_FLOAT
    }
  }
  attr {
    key: "shape"
    value {
      shape {
        dim {
          size: 3
        }
        dim {
          size: 3
        }
        dim {
          size: 64
        }
        dim {
          size: 64
        }
      }
    }
  }
  attr {
    key: "shared_name"
    value {
      s: ""
    }
  }
}
node {
  name: "block_1a_conv_1/kernel/Assign"
  op: "Assign"
  input: "block_1a_conv_1/kernel"
  input: "block_1a_conv_1/random_uniform"
  device: "/device:GPU:0"
  attr {
    key: "T"
    value {
      type: DT_FLOAT
    }
  }
  attr {
    key: "_class"
    value {
      list {
        s: "loc:@block_1a_conv_1/kernel"
      }
    }
  }
  attr {
    key: "_output_shapes"
    value {
      list {
        shape {
          dim {
            size: 3
          }
          dim {
            size: 3
          }
          dim {
            size: 64
          }
          dim {
            size: 64
          }
        }
      }
    }
  }
  attr {
    key: "use_locking"
    value {
      b: true
    }
  }
  attr {
    key: "validate_shape"
    value {
      b: true
    }
  }
}
node {
  name: "block_1a_conv_1/kernel/read"
  op: "Identity"
  input: "block_1a_conv_1/kernel"
  device: "/device:GPU:0"
  attr {
    key: "T"
    value {
      type: DT_FLOAT
    }
  }
  attr {
    key: "_class"
    value {
      list {
        s: "loc:@block_1a_conv_1/kernel"
      }
    }
  }
  attr {
    key: "_output_shapes"
    value {
      list {
        shape {
          dim {
            size: 3
          }
          dim {
            size: 3
          }
          dim {
            size: 64
          }
          dim {
            size: 64
          }
        }
      }
    }
  }
}
node {
  name: "block_1a_conv_1/Const"
  op: "Const"
  device: "/device:GPU:0"
  attr {
    key: "_output_shapes"
    value {
      list {
        shape {
          dim {
            size: 64
          }
        }
      }
    }
  }
  attr {
    key: "dtype"
    value {
      type: DT_FLOAT
    }
  }
  attr {
    key: "value"
    value {
      tensor {
        dtype: DT_FLOAT
        tensor_shape {
          dim {
            size: 64
          }
        }
        float_val: 0.0
      }
    }
  }
}
node {
  name: "block_1a_conv_1/bias"
  op: "VariableV2"
  device: "/device:GPU:0"
  attr {
    key: "_output_shapes"
    value {
      list {
        shape {
          dim {
            size: 64
          }
        }
      }
    }
  }
  attr {
    key: "container"
    value {
      s: ""
    }
  }
  attr {
    key: "dtype"
    value {
      type: DT_FLOAT
    }
  }
  attr {
    key: "shape"
    value {
      shape {
        dim {
          size: 64
        }
      }
    }
  }
  attr {
    key: "shared_name"
    value {
      s: ""
    }
  }
}
node {
  name: "block_1a_conv_1/bias/Assign"
  op: "Assign"
  input: "block_1a_conv_1/bias"
  input: "block_1a_conv_1/Const"
  device: "/device:GPU:0"
  attr {
    key: "T"
    value {
      type: DT_FLOAT
    }
  }
  attr {
    key: "_class"
    value {
      list {
        s: "loc:@block_1a_conv_1/bias"
      }
    }
  }
  attr {
    key: "_output_shapes"
    value {
      list {
        shape {
          dim {
            size: 64
          }
        }
      }
    }
  }
  attr {
    key: "use_locking"
    value {
      b: true
    }
  }
  attr {
    key: "validate_shape"
    value {
      b: true
    }
  }
}
node {
  name: "block_1a_conv_1/bias/read"
  op: "Identity"
  input: "block_1a_conv_1/bias"
  device: "/device:GPU:0"
  attr {
    key: "T"
    value {
      type: DT_FLOAT
    }
  }
  attr {
    key: "_class"
    value {
      list {
        s: "loc:@block_1a_conv_1/bias"
      }
    }
  }
  attr {
    key: "_output_shapes"
    value {
      list {
        shape {
          dim {
            size: 64
          }
        }
      }
    }
  }
}
node {
  name: "block_1a_conv_1/Pad/paddings"
  op: "Const"
  device: "/device:GPU:0"
  attr {
    key: "_output_shapes"
    value {
      list {
        shape {
          dim {
            size: 4
          }
          dim {
            size: 2
          }
        }
      }
    }
  }
  attr {
    key: "dtype"
    value {
      type: DT_INT32
    }
  }
  attr {
    key: "value"
    value {
      tensor {
        dtype: DT_INT32
        tensor_shape {
          dim {
            size: 4
          }
          dim {
            size: 2
          }
        }
        tensor_content: "…"
      }
    }
  }
}
node {
  name: "block_1a_conv_1/Pad"
  op: "Pad"
  input: "activation_1/Relu"
  input: "block_1a_conv_1/Pad/paddings"
  device: "/device:GPU:0"
  attr {
    key: "T"
    value {
      type: DT_FLOAT
    }
  }
  attr {
    key: "Tpaddings"
    value {
      type: DT_INT32
    }
  }
  attr {
    key: "_output_shapes"
    value {
      list {
        shape {
          dim {
            size: -1
          }
          dim {
            size: 64
          }
          dim {
            size: 258
          }
          dim {
            size: 258
          }
        }
      }
    }
  }
}
node {
  name: "block_1a_conv_1/convolution"
  op: "Conv2D"
  input: "block_1a_conv_1/Pad"
  input: "block_1a_conv_1/kernel/read"
  device: "/device:GPU:0"
  attr {
    key: "T"
    value {
      type: DT_FLOAT
    }
  }
  attr {
    key: "_output_shapes"
    value {
      list {
        shape {
          dim {
            size: -1
          }
          dim {
            size: 64
          }
          dim {
            size: 128
          }
          dim {
            size: 128
          }
        }
      }
    }
  }
  attr {
    key: "data_format"
    value {
      s: "NCHW"
    }
  }
  attr {
    key: "dilations"
    value {
      list {
        i: 1
        i: 1
        i: 1
        i: 1
      }
    }
  }
  attr {
    key: "explicit_paddings"
    value {
      list {
      }
    }
  }
  attr {
    key: "padding"
    value {
      s: "VALID"
    }
  }
  attr {
    key: "strides"
    value {
      list {
        i: 1
        i: 1
        i: 2
        i: 2
      }
    }
  }
  attr {
    key: "use_cudnn_on_gpu"
    value {
      b: true
    }
  }
}
node {
  name: "block_1a_conv_1/BiasAdd"
  op: "BiasAdd"
  input: "block_1a_conv_1/convolution"
  input: "block_1a_conv_1/bias/read"
  device: "/device:GPU:0"
  attr {
    key: "T"
    value {
      type: DT_FLOAT
    }
  }
  attr {
    key: "_output_shapes"
    value {
      list {
        shape {
          dim {
            size: -1
          }
          dim {
            size: 64
          }
          dim {
            size: 128
          }
          dim {
            size: 128
          }
        }
      }
    }
  }
  attr {
    key: "data_format"
    value {
      s: "NCHW"
    }
  }
}
node {
  name: "block_1a_relu_1/Relu"
  op: "Relu"
  input: "block_1a_conv_1/BiasAdd"
  device: "/device:GPU:0"
  attr {
    key: "T"
    value {
      type: DT_FLOAT
    }
  }
  attr {
    key: "_output_shapes"
    value {
      list {
        shape {
          dim {
            size: -1
          }
          dim {
            size: 64
          }
          dim {
            size: 128
          }
          dim {
            size: 128
          }
        }
      }
    }
  }
}
node {
  name: "block_1a_conv_2/random_uniform/shape"
  op: "Const"
  device: "/device:GPU:0"
  attr {
    key: "_output_shapes"
    value {
      list {
        shape {
          dim {
            size: 4
          }
        }
      }
    }
  }
  attr {
    key: "dtype"
    value {
      type: DT_INT32
    }
  }
  attr {
    key: "value"
    value {
      tensor {
        dtype: DT_INT32
        tensor_shape {
          dim {
            size: 4
          }
        }
        tensor_content: "\003\000\000\000\003\000\000\000@\000\000\000@\000\000\000"
      }
    }
  }
}
node {
  name: "block_1a_conv_2/random_uniform/min"
  op: "Const"
  device: "/device:GPU:0"
  attr {
    key: "_output_shapes"
    value {
      list {
        shape {
        }
      }
    }
  }
  attr {
    key: "dtype"
    value {
      type: DT_FLOAT
    }
  }
  attr {
    key: "value"
    value {
      tensor {
        dtype: DT_FLOAT
        tensor_shape {
        }
        float_val: -0.07216878235340118
      }
    }
  }
}
node {
  name: "block_1a_conv_2/random_uniform/max"
  op: "Const"
  device: "/device:GPU:0"
  attr {
    key: "_output_shapes"
    value {
      list {
        shape {
        }
      }
    }
  }
  attr {
    key: "dtype"
    value {
      type: DT_FLOAT
    }
  }
  attr {
    key: "value"
    value {
      tensor {
        dtype: DT_FLOAT
        tensor_shape {
        }
        float_val: 0.07216878235340118
      }
    }
  }
}
node {
  name: "block_1a_conv_2/random_uniform/RandomUniform"
  op: "RandomUniform"
  input: "block_1a_conv_2/random_uniform/shape"
  device: "/device:GPU:0"
  attr {
    key: "T"
    value {
      type: DT_INT32
    }
  }
  attr {
    key: "_output_shapes"
    value {
      list {
        shape {
          dim {
            size: 3
          }
          dim {
            size: 3
          }
          dim {
            size: 64
          }
          dim {
            size: 64
          }
        }
      }
    }
  }
  attr {
    key: "dtype"
    value {
      type: DT_FLOAT
    }
  }
  attr {
    key: "seed"
    value {
      i: 87654321
    }
  }
  attr {
    key: "seed2"
    value {
      i: 1223887
    }
  }
}
node {
  name: "block_1a_conv_2/random_uniform/sub"
  op: "Sub"
  input: "block_1a_conv_2/random_uniform/max"
  input: "block_1a_conv_2/random_uniform/min"
  device: "/device:GPU:0"
  attr {
    key: "T"
    value {
      type: DT_FLOAT
    }
  }
  attr {
    key: "_output_shapes"
    value {
      list {
        shape {
        }
      }
    }
  }
}
node {
  name: "block_1a_conv_2/random_uniform/mul"
  op: "Mul"
  input: "block_1a_conv_2/random_uniform/RandomUniform"
  input: "block_1a_conv_2/random_uniform/sub"
  device: "/device:GPU:0"
  attr {
    key: "T"
    value {
      type: DT_FLOAT
    }
  }
  attr {
    key: "_output_shapes"
    value {
      list {
        shape {
          dim {
            size: 3
          }
          dim {
            size: 3
          }
          dim {
            size: 64
          }
          dim {
            size: 64
          }
        }
      }
    }
  }
}
node {
  name: "block_1a_conv_2/random_uniform"
  op: "Add"
  input: "block_1a_conv_2/random_uniform/mul"
  input: "block_1a_conv_2/random_uniform/min"
  device: "/device:GPU:0"
  attr {
    key: "T"
    value {
      type: DT_FLOAT
    }
  }
  attr {
    key: "_output_shapes"
    value {
      list {
        shape {
          dim {
            size: 3
          }
          dim {
            size: 3
          }
          dim {
            size: 64
          }
          dim {
            size: 64
          }
        }
      }
    }
  }
}
node {
  name: "block_1a_conv_2/kernel"
  op: "VariableV2"
  device: "/device:GPU:0"
  attr {
    key: "_output_shapes"
    value {
      list {
        shape {
          dim {
            size: 3
          }
          dim {
            size: 3
          }
          dim {
            size: 64
          }
          dim {
            size: 64
          }
        }
      }
    }
  }
  attr {
    key: "container"
    value {
      s: ""
    }
  }
  attr {
    key: "dtype"
    value {
      type: DT_FLOAT
    }
  }
  attr {
    key: "shape"
    value {
      shape {
        dim {
          size: 3
        }
        dim {
          size: 3
        }
        dim {
          size: 64
        }
        dim {
          size: 64
        }
      }
    }
  }
  attr {
    key: "shared_name"
    value {
      s: ""
    }
  }
}
node {
  name: "block_1a_conv_2/kernel/Assign"
  op: "Assign"
  input: "block_1a_conv_2/kernel"
  input: "block_1a_conv_2/random_uniform"
  device: "/device:GPU:0"
  attr {
    key: "T"
    value {
      type: DT_FLOAT
    }
  }
  attr {
    key: "_class"
    value {
      list {
        s: "loc:@block_1a_conv_2/kernel"
      }
    }
  }
  attr {
    key: "_output_shapes"
    value {
      list {
        shape {
          dim {
            size: 3
          }
          dim {
            size: 3
          }
          dim {
            size: 64
          }
          dim {
            size: 64
          }
        }
      }
    }
  }
  attr {
    key: "use_locking"
    value {
      b: true
    }
  }
  attr {
    key: "validate_shape"
    value {
      b: true
    }
  }
}
node {
  name: "block_1a_conv_2/kernel/read"
  op: "Identity"
  input: "block_1a_conv_2/kernel"
  device: "/device:GPU:0"
  attr {
    key: "T"
    value {
      type: DT_FLOAT
    }
  }
  attr {
    key: "_class"
    value {
      list {
        s: "loc:@block_1a_conv_2/kernel"
      }
    }
  }
  attr {
    key: "_output_shapes"
    value {
      list {
        shape {
          dim {
            size: 3
          }
          dim {
            size: 3
          }
          dim {
            size: 64
          }
          dim {
            size: 64
          }
        }
      }
    }
  }
}
node {
  name: "block_1a_conv_2/Const"
  op: "Const"
  device: "/device:GPU:0"
  attr {
    key: "_output_shapes"
    value {
      list {
        shape {
          dim {
            size: 64
          }
        }
      }
    }
  }
  attr {
    key: "dtype"
    value {
      type: DT_FLOAT
    }
  }
  attr {
    key: "value"
    value {
      tensor {
        dtype: DT_FLOAT
        tensor_shape {
          dim {
            size: 64
          }
        }
        float_val: 0.0
      }
    }
  }
}
node {
  name: "block_1a_conv_2/bias"
  op: "VariableV2"
  device: "/device:GPU:0"
  attr {
    key: "_output_shapes"
    value {
      list {
        shape {
          dim {
            size: 64
          }
        }
      }
    }
  }
  attr {
    key: "container"
    value {
      s: ""
    }
  }
  attr {
    key: "dtype"
    value {
      type: DT_FLOAT
    }
  }
  attr {
    key: "shape"
    value {
      shape {
        dim {
          size: 64
        }
      }
    }
  }
  attr {
    key: "shared_name"
    value {
      s: ""
    }
  }
}
node {
  name: "block_1a_conv_2/bias/Assign"
  op: "Assign"
  input: "block_1a_conv_2/bias"
  input: "block_1a_conv_2/Const"
  device: "/device:GPU:0"
  attr {
    key: "T"
    value {
      type: DT_FLOAT
    }
  }
  attr {
    key: "_class"
    value {
      list {
        s: "loc:@block_1a_conv_2/bias"
      }
    }
  }
  attr {
    key: "_output_shapes"
    value {
      list {
        shape {
          dim {
            size: 64
          }
        }
      }
    }
  }
  attr {
    key: "use_locking"
    value {
      b: true
    }
  }
  attr {
    key: "validate_shape"
    value {
      b: true
    }
  }
}
node {
  name: "block_1a_conv_2/bias/read"
  op: "Identity"
  input: "block_1a_conv_2/bias"
  device: "/device:GPU:0"
  attr {
    key: "T"
    value {
      type: DT_FLOAT
    }
  }
  attr {
    key: "_class"
    value {
      list {
        s: "loc:@block_1a_conv_2/bias"
      }
    }
  }
  attr {
    key: "_output_shapes"
    value {
      list {
        shape {
          dim {
            size: 64
          }
        }
      }
    }
  }
}
node {
  name: "block_1a_conv_2/Pad/paddings"
  op: "Const"
  device: "/device:GPU:0"
  attr {
    key: "_output_shapes"
    value {
      list {
        shape {
          dim {
            size: 4
          }
          dim {
            size: 2
          }
        }
      }
    }
  }
  attr {
    key: "dtype"
    value {
      type: DT_INT32
    }
  }
  attr {
    key: "value"
    value {
      tensor {
        dtype: DT_INT32
        tensor_shape {
          dim {
            size: 4
          }
          dim {
            size: 2
          }
        }
        tensor_content: "…"
      }
    }
  }
}
node {
  name: "block_1a_conv_2/Pad"
  op: "Pad"
  input: "block_1a_relu_1/Relu"
  input: "block_1a_conv_2/Pad/paddings"
  device: "/device:GPU:0"
  attr {
    key: "T"
    value {
      type: DT_FLOAT
    }
  }
  attr {
    key: "Tpaddings"
    value {
      type: DT_INT32
    }
  }
  attr {
    key: "_output_shapes"
    value {
      list {
        shape {
          dim {
            size: -1
          }
          dim {
            size: 64
          }
          dim {
            size: 130
          }
          dim {
            size: 130
          }
        }
      }
    }
  }
}
node {
  name: "block_1a_conv_2/convolution"
  op: "Conv2D"
  input: "block_1a_conv_2/Pad"
  input: "block_1a_conv_2/kernel/read"
  device: "/device:GPU:0"
  attr {
    key: "T"
    value {
      type: DT_FLOAT
    }
  }
  attr {
    key: "_output_shapes"
    value {
      list {
        shape {
          dim {
            size: -1
          }
          dim {
            size: 64
          }
          dim {
            size: 128
          }
          dim {
            size: 128
          }
        }
      }
    }
  }
  attr {
    key: "data_format"
    value {
      s: "NCHW"
    }
  }
  attr {
    key: "dilations"
    value {
      list {
        i: 1
        i: 1
        i: 1
        i: 1
      }
    }
  }
  attr {
    key: "explicit_paddings"
    value {
      list {
      }
    }
  }
  attr {
    key: "padding"
    value {
      s: "VALID"
    }
  }
  attr {
    key: "strides"
    value {
      list {
        i: 1
        i: 1
        i: 1
        i: 1
      }
    }
  }
  attr {
    key: "use_cudnn_on_gpu"
    value {
      b: true
    }
  }
}
node {
  name: "block_1a_conv_2/BiasAdd"
  op: "BiasAdd"
  input: "block_1a_conv_2/convolution"
  input: "block_1a_conv_2/bias/read"
  device: "/device:GPU:0"
  attr {
    key: "T"
    value {
      type: DT_FLOAT
    }
  }
  attr {
    key: "_output_shapes"
    value {
      list {
        shape {
          dim {
            size: -1
          }
          dim {
            size: 64
          }
          dim {
            size: 128
          }
          dim {
            size: 128
          }
        }
      }
    }
  }
  attr {
    key: "data_format"
    value {
      s: "NCHW"
    }
  }
}
node {
  name: "block_1a_conv_shortcut/random_uniform/shape"
  op: "Const"
  device: "/device:GPU:0"
  attr {
    key: "_output_shapes"
    value {
      list {
        shape {
          dim {
            size: 4
          }
        }
      }
    }
  }
  attr {
    key: "dtype"
    value {
      type: DT_INT32
    }
  }
  attr {
    key: "value"
    value {
      tensor {
        dtype: DT_INT32
        tensor_shape {
          dim {
            size: 4
          }
        }
        tensor_content: "\001\000\000\000\001\000\000\000@\000\000\000@\000\000\000"
      }
    }
  }
}
node {
  name: "block_1a_conv_shortcut/random_uniform/min"
  op: "Const"
  device: "/device:GPU:0"
  attr {
    key: "_output_shapes"
    value {
      list {
        shape {
        }
      }
    }
  }
  attr {
    key: "dtype"
    value {
      type: DT_FLOAT
    }
  }
  attr {
    key: "value"
    value {
      tensor {
        dtype: DT_FLOAT
        tensor_shape {
        }
        float_val: -0.21650634706020355
      }
    }
  }
}
node {
  name: "block_1a_conv_shortcut/random_uniform/max"
  op: "Const"
  device: "/device:GPU:0"
  attr {
    key: "_output_shapes"
    value {
      list {
        shape {
        }
      }
    }
  }
  attr {
    key: "dtype"
    value {
      type: DT_FLOAT
    }
  }
  attr {
    key: "value"
    value {
      tensor {
        dtype: DT_FLOAT
        tensor_shape {
        }
        float_val: 0.21650634706020355
      }
    }
  }
}
node {
  name: "block_1a_conv_shortcut/random_uniform/RandomUniform"
  op: "RandomUniform"
  input: "block_1a_conv_shortcut/random_uniform/shape"
  device: "/device:GPU:0"
  attr {
    key: "T"
    value {
      type: DT_INT32
    }
  }
  attr {
    key: "_output_shapes"
    value {
      list {
        shape {
          dim {
            size: 1
          }
          dim {
            size: 1
          }
          dim {
            size: 64
          }
          dim {
            size: 64
          }
        }
      }
    }
  }
  attr {
    key: "dtype"
    value {
      type: DT_FLOAT
    }
  }
  attr {
    key: "seed"
    value {
      i: 87654321
    }
  }
  attr {
    key: "seed2"
    value {
      i: 3637173
    }
  }
}
node {
  name: "block_1a_conv_shortcut/random_uniform/sub"
  op: "Sub"
  input: "block_1a_conv_shortcut/random_uniform/max"
  input: "block_1a_conv_shortcut/random_uniform/min"
  device: "/device:GPU:0"
  attr {
    key: "T"
    value {
      type: DT_FLOAT
    }
  }
  attr {
    key: "_output_shapes"
    value {
      list {
        shape {
        }
      }
    }
  }
}
node {
  name: "block_1a_conv_shortcut/random_uniform/mul"
  op: "Mul"
  input: "block_1a_conv_shortcut/random_uniform/RandomUniform"
  input: "block_1a_conv_shortcut/random_uniform/sub"
  device: "/device:GPU:0"
  attr {
    key: "T"
    value {
      type: DT_FLOAT
    }
  }
  attr {
    key: "_output_shapes"
    value {
      list {
        shape {
          dim {
            size: 1
          }
          dim {
            size: 1
          }
          dim {
            size: 64
          }
          dim {
            size: 64
          }
        }
      }
    }
  }
}
node {
  name: "block_1a_conv_shortcut/random_uniform"
  op: "Add"
  input: "block_1a_conv_shortcut/random_uniform/mul"
  input: "block_1a_conv_shortcut/random_uniform/min"
  device: "/device:GPU:0"
  attr {
    key: "T"
    value {
      type: DT_FLOAT
    }
  }
  attr {
    key: "_output_shapes"
    value {
      list {
        shape {
          dim {
            size: 1
          }
          dim {
            size: 1
          }
          dim {
            size: 64
          }
          dim {
            size: 64
          }
        }
      }
    }
  }
}
node {
  name: "block_1a_conv_shortcut/kernel"
  op: "VariableV2"
  device: "/device:GPU:0"
  attr {
    key: "_output_shapes"
    value {
      list {
        shape {
          dim {
            size: 1
          }
          dim {
            size: 1
          }
          dim {
            size: 64
          }
          dim {
            size: 64
          }
        }
      }
    }
  }
  attr {
    key: "container"
    value {
      s: ""
    }
  }
  attr {
    key: "dtype"
    value {
      type: DT_FLOAT
    }
  }
  attr {
    key: "shape"
    value {
      shape {
        dim {
          size: 1
        }
        dim {
          size: 1
        }
        dim {
          size: 64
        }
        dim {
          size: 64
        }
      }
    }
  }
  attr {
    key: "shared_name"
    value {
      s: ""
    }
  }
}
node {
  name: "block_1a_conv_shortcut/kernel/Assign"
  op: "Assign"
  input: "block_1a_conv_shortcut/kernel"
  input: "block_1a_conv_shortcut/random_uniform"
  device: "/device:GPU:0"
  attr {
    key: "T"
    value {
      type: DT_FLOAT
    }
  }
  attr {
    key: "_class"
    value {
      list {
        s: "loc:@block_1a_conv_shortcut/kernel"
      }
    }
  }
  attr {
    key: "_output_shapes"
    value {
      list {
        shape {
          dim {
            size: 1
          }
          dim {
            size: 1
          }
          dim {
            size: 64
          }
          dim {
            size: 64
          }
        }
      }
    }
  }
  attr {
    key: "use_locking"
    value {
      b: true
    }
  }
  attr {
    key: "validate_shape"
    value {
      b: true
    }
  }
}
node {
  name: "block_1a_conv_shortcut/kernel/read"
  op: "Identity"
  input: "block_1a_conv_shortcut/kernel"
  device: "/device:GPU:0"
  attr {
    key: "T"
    value {
      type: DT_FLOAT
    }
  }
  attr {
    key: "_class"
    value {
      list {
        s: "loc:@block_1a_conv_shortcut/kernel"
      }
    }
  }
  attr {
    key: "_output_shapes"
    value {
      list {
        shape {
          dim {
            size: 1
          }
          dim {
            size: 1
          }
          dim {
            size: 64
          }
          dim {
            size: 64
          }
        }
      }
    }
  }
}
node {
  name: "block_1a_conv_shortcut/Const"
  op: "Const"
  device: "/device:GPU:0"
  attr {
    key: "_output_shapes"
    value {
      list {
        shape {
          dim {
            size: 64
          }
        }
      }
    }
  }
  attr {
    key: "dtype"
    value {
      type: DT_FLOAT
    }
  }
  attr {
    key: "value"
    value {
      tensor {
        dtype: DT_FLOAT
        tensor_shape {
          dim {
            size: 64
          }
        }
        float_val: 0.0
      }
    }
  }
}
node {
  name: "block_1a_conv_shortcut/bias"
  op: "VariableV2"
  device: "/device:GPU:0"
  attr {
    key: "_output_shapes"
    value {
      list {
        shape {
          dim {
            size: 64
          }
        }
      }
    }
  }
  attr {
    key: "container"
    value {
      s: ""
    }
  }
  attr {
    key: "dtype"
    value {
      type: DT_FLOAT
    }
  }
  attr {
    key: "shape"
    value {
      shape {
        dim {
          size: 64
        }
      }
    }
  }
  attr {
    key: "shared_name"
    value {
      s: ""
    }
  }
}
node {
  name: "block_1a_conv_shortcut/bias/Assign"
  op: "Assign"
  input: "block_1a_conv_shortcut/bias"
  input: "block_1a_conv_shortcut/Const"
  device: "/device:GPU:0"
  attr {
    key: "T"
    value {
      type: DT_FLOAT
    }
  }
  attr {
    key: "_class"
    value {
      list {
        s: "loc:@block_1a_conv_shortcut/bias"
      }
    }
  }
  attr {
    key: "_output_shapes"
    value {
      list {
        shape {
          dim {
            size: 64
          }
        }
      }
    }
  }
  attr {
    key: "use_locking"
    value {
      b: true
    }
  }
  attr {
    key: "validate_shape"
    value {
      b: true
    }
  }
}
node {
  name: "block_1a_conv_shortcut/bias/read"
  op: "Identity"
  input: "block_1a_conv_shortcut/bias"
  device: "/device:GPU:0"
  attr {
    key: "T"
    value {
      type: DT_FLOAT
    }
  }
  attr {
    key: "_class"
    value {
      list {
        s: "loc:@block_1a_conv_shortcut/bias"
      }
    }
  }
  attr {
    key: "_output_shapes"
    value {
      list {
        shape {
          dim {
            size: 64
          }
        }
      }
    }
  }
}
node {
  name: "block_1a_conv_shortcut/convolution"
  op: "Conv2D"
  input: "activation_1/Relu"
  input: "block_1a_conv_shortcut/kernel/read"
  device: "/device:GPU:0"
  attr {
    key: "T"
    value {
      type: DT_FLOAT
    }
  }
  attr {
    key: "_output_shapes"
    value {
      list {
        shape {
          dim {
            size: -1
          }
          dim {
            size: 64
          }
          dim {
            size: 128
          }
          dim {
            size: 128
          }
        }
      }
    }
  }
  attr {
    key: "data_format"
    value {
      s: "NCHW"
    }
  }
  attr {
    key: "dilations"
    value {
      list {
        i: 1
        i: 1
        i: 1
        i: 1
      }
    }
  }
  attr {
    key: "explicit_paddings"
    value {
      list {
      }
    }
  }
  attr {
    key: "padding"
    value {
      s: "VALID"
    }
  }
  attr {
    key: "strides"
    value {
      list {
        i: 1
        i: 1
        i: 2
        i: 2
      }
    }
  }
  attr {
    key: "use_cudnn_on_gpu"
    value {
      b: true
    }
  }
}
node {
  name: "block_1a_conv_shortcut/BiasAdd"
  op: "BiasAdd"
  input: "block_1a_conv_shortcut/convolution"
  input: "block_1a_conv_shortcut/bias/read"
  device: "/device:GPU:0"
  attr {
    key: "T"
    value {
      type: DT_FLOAT
    }
  }
  attr {
    key: "_output_shapes"
    value {
      list {
        shape {
          dim {
            size: -1
          }
          dim {
            size: 64
          }
          dim {
            size: 128
          }
          dim {
            size: 128
          }
        }
      }
    }
  }
  attr {
    key: "data_format"
    value {
      s: "NCHW"
    }
  }
}
node {
  name: "add_1/add"
  op: "AddV2"
  input: "block_1a_conv_2/BiasAdd"
  input: "block_1a_conv_shortcut/BiasAdd"
  device: "/device:GPU:0"
  attr {
    key: "T"
    value {
      type: DT_FLOAT
    }
  }
  attr {
    key: "_output_shapes"
    value {
      list {
        shape {
          dim {
            size: -1
          }
          dim {
            size: 64
          }
          dim {
            size: 128
          }
          dim {
            size: 128
          }
        }
      }
    }
  }
}
node {
  name: "block_1a_relu/Relu"
  op: "Relu"
  input: "add_1/add"
  device: "/device:GPU:0"
  attr {
    key: "T"
    value {
      type: DT_FLOAT
    }
  }
  attr {
    key: "_output_shapes"
    value {
      list {
        shape {
          dim {
            size: -1
          }
          dim {
            size: 64
          }
          dim {
            size: 128
          }
          dim {
            size: 128
          }
        }
      }
    }
  }
}
node {
  name: "block_1b_conv_1/random_uniform/shape"
  op: "Const"
  device: "/device:GPU:0"
  attr {
    key: "_output_shapes"
    value {
      list {
        shape {
          dim {
            size: 4
          }
        }
      }
    }
  }
  attr {
    key: "dtype"
    value {
      type: DT_INT32
    }
  }
  attr {
    key: "value"
    value {
      tensor {
        dtype: DT_INT32
        tensor_shape {
          dim {
            size: 4
          }
        }
        tensor_content: "\003\000\000\000\003\000\000\000@\000\000\000@\000\000\000"
      }
    }
  }
}
node {
  name: "block_1b_conv_1/random_uniform/min"
  op: "Const"
  device: "/device:GPU:0"
  attr {
    key: "_output_shapes"
    value {
      list {
        shape {
        }
      }
    }
  }
  attr {
    key: "dtype"
    value {
      type: DT_FLOAT
    }
  }
  attr {
    key: "value"
    value {
      tensor {
        dtype: DT_FLOAT
        tensor_shape {
        }
        float_val: -0.07216878235340118
      }
    }
  }
}
node {
  name: "block_1b_conv_1/random_uniform/max"
  op: "Const"
  device: "/device:GPU:0"
  attr {
    key: "_output_shapes"
    value {
      list {
        shape {
        }
      }
    }
  }
  attr {
    key: "dtype"
    value {
      type: DT_FLOAT
    }
  }
  attr {
    key: "value"
    value {
      tensor {
        dtype: DT_FLOAT
        tensor_shape {
        }
        float_val: 0.07216878235340118
      }
    }
  }
}
node {
  name: "block_1b_conv_1/random_uniform/RandomUniform"
  op: "RandomUniform"
  input: "block_1b_conv_1/random_uniform/shape"
  device: "/device:GPU:0"
  attr {
    key: "T"
    value {
      type: DT_INT32
    }
  }
  attr {
    key: "_output_shapes"
    value {
      list {
        shape {
          dim {
            size: 3
          }
          dim {
            size: 3
          }
          dim {
            size: 64
          }
          dim {
            size: 64
          }
        }
      }
    }
  }
  attr {
    key: "dtype"
    value {
      type: DT_FLOAT
    }
  }
  attr {
    key: "seed"
    value {
      i: 87654321
    }
  }
  attr {
    key: "seed2"
    value {
      i: 2466820
    }
  }
}
node {
  name: "block_1b_conv_1/random_uniform/sub"
  op: "Sub"
  input: "block_1b_conv_1/random_uniform/max"
  input: "block_1b_conv_1/random_uniform/min"
  device: "/device:GPU:0"
  attr {
    key: "T"
    value {
      type: DT_FLOAT
    }
  }
  attr {
    key: "_output_shapes"
    value {
      list {
        shape {
        }
      }
    }
  }
}
node {
  name: "block_1b_conv_1/random_uniform/mul"
  op: "Mul"
  input: "block_1b_conv_1/random_uniform/RandomUniform"
  input: "block_1b_conv_1/random_uniform/sub"
  device: "/device:GPU:0"
  attr {
    key: "T"
    value {
      type: DT_FLOAT
    }
  }
  attr {
    key: "_output_shapes"
    value {
      list {
        shape {
          dim {
            size: 3
          }
          dim {
            size: 3
          }
          dim {
            size: 64
          }
          dim {
            size: 64
          }
        }
      }
    }
  }
}
node {
  name: "block_1b_conv_1/random_uniform"
  op: "Add"
  input: "block_1b_conv_1/random_uniform/mul"
  input: "block_1b_conv_1/random_uniform/min"
  device: "/device:GPU:0"
  attr {
    key: "T"
    value {
      type: DT_FLOAT
    }
  }
  attr {
    key: "_output_shapes"
    value {
      list {
        shape {
          dim {
            size: 3
          }
          dim {
            size: 3
          }
          dim {
            size: 64
          }
          dim {
            size: 64
          }
        }
      }
    }
  }
}
node {
  name: "block_1b_conv_1/kernel"
  op: "VariableV2"
  device: "/device:GPU:0"
  attr {
    key: "_output_shapes"
    value {
      list {
        shape {
          dim {
            size: 3
          }
          dim {
            size: 3
          }
          dim {
            size: 64
          }
          dim {
            size: 64
          }
        }
      }
    }
  }
  attr {
    key: "container"
    value {
      s: ""
    }
  }
  attr {
    key: "dtype"
    value {
      type: DT_FLOAT
    }
  }
  attr {
    key: "shape"
    value {
      shape {
        dim {
          size: 3
        }
        dim {
          size: 3
        }
        dim {
          size: 64
        }
        dim {
          size: 64
        }
      }
    }
  }
  attr {
    key: "shared_name"
    value {
      s: ""
    }
  }
}
node {
  name: "block_1b_conv_1/kernel/Assign"
  op: "Assign"
  input: "block_1b_conv_1/kernel"
  input: "block_1b_conv_1/random_uniform"
  device: "/device:GPU:0"
  attr {
    key: "T"
    value {
      type: DT_FLOAT
    }
  }
  attr {
    key: "_class"
    value {
      list {
        s: "loc:@block_1b_conv_1/kernel"
      }
    }
  }
  attr {
    key: "_output_shapes"
    value {
      list {
        shape {
          dim {
            size: 3
          }
          dim {
            size: 3
          }
          dim {
            size: 64
          }
          dim {
            size: 64
          }
        }
      }
    }
  }
  attr {
    key: "use_locking"
    value {
      b: true
    }
  }
  attr {
    key: "validate_shape"
    value {
      b: true
    }
  }
}
node {
  name: "block_1b_conv_1/kernel/read"
  op: "Identity"
  input: "block_1b_conv_1/kernel"
  device: "/device:GPU:0"
  attr {
    key: "T"
    value {
      type: DT_FLOAT
    }
  }
  attr {
    key: "_class"
    value {
      list {
        s: "loc:@block_1b_conv_1/kernel"
      }
    }
  }
  attr {
    key: "_output_shapes"
    value {
      list {
        shape {
          dim {
            size: 3
          }
          dim {
            size: 3
          }
          dim {
            size: 64
          }
          dim {
            size: 64
          }
        }
      }
    }
  }
}
node {
  name: "block_1b_conv_1/Const"
  op: "Const"
  device: "/device:GPU:0"
  attr {
    key: "_output_shapes"
    value {
      list {
        shape {
          dim {
            size: 64
          }
        }
      }
    }
  }
  attr {
    key: "dtype"
    value {
      type: DT_FLOAT
    }
  }
  attr {
    key: "value"
    value {
      tensor {
        dtype: DT_FLOAT
        tensor_shape {
          dim {
            size: 64
          }
        }
        float_val: 0.0
      }
    }
  }
}
node {
  name: "block_1b_conv_1/bias"
  op: "VariableV2"
  device: "/device:GPU:0"
  attr {
    key: "_output_shapes"
    value {
      list {
        shape {
          dim {
            size: 64
          }
        }
      }
    }
  }
  attr {
    key: "container"
    value {
      s: ""
    }
  }
  attr {
    key: "dtype"
    value {
      type: DT_FLOAT
    }
  }
  attr {
    key: "shape"
    value {
      shape {
        dim {
          size: 64
        }
      }
    }
  }
  attr {
    key: "shared_name"
    value {
      s: ""
    }
  }
}
node {
  name: "block_1b_conv_1/bias/Assign"
  op: "Assign"
  input: "block_1b_conv_1/bias"
  input: "block_1b_conv_1/Const"
  device: "/device:GPU:0"
  attr {
    key: "T"
    value {
      type: DT_FLOAT
    }
  }
  attr {
    key: "_class"
    value {
      list {
        s: "loc:@block_1b_conv_1/bias"
      }
    }
  }
  attr {
    key: "_output_shapes"
    value {
      list {
        shape {
          dim {
            size: 64
          }
        }
      }
    }
  }
  attr {
    key: "use_locking"
    value {
      b: true
    }
  }
  attr {
    key: "validate_shape"
    value {
      b: true
    }
  }
}
node {
  name: "block_1b_conv_1/bias/read"
  op: "Identity"
  input: "block_1b_conv_1/bias"
  device: "/device:GPU:0"
  attr {
    key: "T"
    value {
      type: DT_FLOAT
    }
  }
  attr {
    key: "_class"
    value {
      list {
        s: "loc:@block_1b_conv_1/bias"
      }
    }
  }
  attr {
    key: "_output_shapes"
    value {
      list {
        shape {
          dim {
            size: 64
          }
        }
      }
    }
  }
}
node {
  name: "block_1b_conv_1/Pad/paddings"
  op: "Const"
  device: "/device:GPU:0"
  attr {
    key: "_output_shapes"
    value {
      list {
        shape {
          dim {
            size: 4
          }
          dim {
            size: 2
          }
        }
      }
    }
  }
  attr {
    key: "dtype"
    value {
      type: DT_INT32
    }
  }
  attr {
    key: "value"
    value {
      tensor {
        dtype: DT_INT32
        tensor_shape {
          dim {
            size: 4
          }
          dim {
            size: 2
          }
        }
        tensor_content: "…"
      }
    }
  }
}
node {
  name: "block_1b_conv_1/Pad"
  op: "Pad"
  input: "block_1a_relu/Relu"
  input: "block_1b_conv_1/Pad/paddings"
  device: "/device:GPU:0"
  attr {
    key: "T"
    value {
      type: DT_FLOAT
    }
  }
  attr {
    key: "Tpaddings"
    value {
      type: DT_INT32
    }
  }
  attr {
    key: "_output_shapes"
    value {
      list {
        shape {
          dim {
            size: -1
          }
          dim {
            size: 64
          }
          dim {
            size: 130
          }
          dim {
            size: 130
          }
        }
      }
    }
  }
}
node {
…
            tensor_shape {
            }
            int_val: 1
          }
        }
      }
    }
    node_def {
      name: "one_hot/off_value"
      op: "Const"
      attr {
        key: "_output_shapes"
        value {
          list {
            shape {
            }
          }
        }
      }
      attr {
        key: "dtype"
        value {
          type: DT_UINT8
        }
      }
      attr {
        key: "value"
        value {
          tensor {
            dtype: DT_UINT8
            tensor_shape {
            }
            int_val: 0
          }
        }
      }
    }
    node_def {
      name: "one_hot/depth"
      op: "Const"
      attr {
        key: "_output_shapes"
        value {
          list {
            shape {
            }
          }
        }
      }
      attr {
        key: "dtype"
        value {
          type: DT_INT32
        }
      }
      attr {
        key: "value"
        value {
          tensor {
            dtype: DT_INT32
            tensor_shape {
            }
            int_val: 2
          }
        }
      }
    }
    node_def {
      name: "one_hot"
      op: "OneHot"
      input: "Cast:y:0"
      input: "one_hot/depth:output:0"
      input: "one_hot/on_value:output:0"
      input: "one_hot/off_value:output:0"
      attr {
        key: "T"
        value {
          type: DT_UINT8
        }
      }
      attr {
        key: "TI"
        value {
          type: DT_UINT8
        }
      }
      attr {
        key: "_output_shapes"
        value {
          list {
            shape {
              dim {
                size: 2
              }
              dim {
                size: 262144
              }
            }
          }
        }
      }
      attr {
        key: "axis"
        value {
          i: 0
        }
      }
    }
    node_def {
      name: "Cast_1"
      op: "Cast"
      input: "one_hot:output:0"
      attr {
        key: "DstT"
        value {
          type: DT_FLOAT
        }
      }
      attr {
        key: "SrcT"
        value {
          type: DT_UINT8
        }
      }
      attr {
        key: "Truncate"
        value {
          b: false
        }
      }
      attr {
        key: "_output_shapes"
        value {
          list {
            shape {
              dim {
                size: 2
              }
              dim {
                size: 262144
              }
            }
          }
        }
      }
    }
    node_def {
      name: "Reshape_1/shape"
      op: "Const"
      attr {
        key: "_output_shapes"
        value {
          list {
            shape {
              dim {
                size: 3
              }
            }
          }
        }
      }
      attr {
        key: "dtype"
        value {
          type: DT_INT32
        }
      }
      attr {
        key: "value"
        value {
          tensor {
            dtype: DT_INT32
            tensor_shape {
              dim {
                size: 3
              }
            }
            tensor_content: "\002\000\000\000\000\002\000\000\000\002\000\000"
          }
        }
      }
    }
    node_def {
      name: "Reshape_1"
      op: "Reshape"
      input: "Cast_1:y:0"
      input: "Reshape_1/shape:output:0"
      attr {
        key: "T"
        value {
          type: DT_FLOAT
        }
      }
      attr {
        key: "Tshape"
        value {
          type: DT_INT32
        }
      }
      attr {
        key: "_output_shapes"
        value {
          list {
            shape {
              dim {
                size: 2
              }
              dim {
                size: 512
              }
              dim {
                size: 512
              }
            }
          }
        }
      }
    }
    node_def {
      name: "Identity"
      op: "Identity"
      input: "args_0"
      attr {
        key: "T"
        value {
          type: DT_FLOAT
        }
      }
      attr {
        key: "_output_shapes"
        value {
          list {
            shape {
              dim {
                size: 3
              }
              dim {
                size: 512
              }
              dim {
                size: 512
              }
            }
          }
        }
      }
    }
    node_def {
      name: "Identity_1"
      op: "Identity"
      input: "Reshape_1:output:0"
      attr {
        key: "T"
        value {
          type: DT_FLOAT
        }
      }
      attr {
        key: "_output_shapes"
        value {
          list {
            shape {
              dim {
                size: 2
              }
              dim {
                size: 512
              }
              dim {
                size: 512
              }
            }
          }
        }
      }
    }
    ret {
      key: "identity"
      value: "Identity:output:0"
    }
    ret {
      key: "identity_1"
      value: "Identity_1:output:0"
    }
    attr {
      key: "_input_shapes"
      value {
        list {
          shape {
            dim {
              size: 3
            }
            dim {
              size: 512
            }
            dim {
              size: 512
            }
          }
          shape {
            dim {
              size: 1
            }
            dim {
              size: 512
            }
            dim {
              size: 512
            }
          }
        }
      }
    }
    arg_attr {
      value {
        attr {
          key: "_user_specified_name"
          value {
            s: "args_0"
          }
        }
      }
    }
    arg_attr {
      key: 1
      value {
        attr {
          key: "_user_specified_name"
          value {
            s: "args_1"
          }
        }
      }
    }
  }
  function {
    signature {
      name: "__inference_Dataset_map__map_func_set_random_wrapper_2687"
      input_arg {
        name: "args_0"
        type: DT_UINT8
      }
      input_arg {
        name: "args_1"
        type: DT_UINT8
      }
      input_arg {
        name: "key_value_init_lookuptableimportv2_hash_table"
        type: DT_RESOURCE
      }
      output_arg {
        name: "identity"
        type: DT_UINT8
      }
      output_arg {
        name: "identity_1"
        type: DT_INT64
      }
      is_stateful: true
      control_output: "hash_table_Lookup/LookupTableFindV2"
      control_output: "key_value_init/LookupTableImportV2"
    }
    node_def {
      name: "Cast"
      op: "Cast"
      input: "args_1"
      attr {
        key: "DstT"
        value {
          type: DT_INT64
        }
      }
      attr {
        key: "SrcT"
        value {
          type: DT_UINT8
        }
      }
      attr {
        key: "Truncate"
        value {
          b: false
        }
      }
      attr {
        key: "_output_shapes"
        value {
          list {
            shape {
              dim {
                size: -1
              }
              dim {
                size: -1
              }
              dim {
                size: 1
              }
            }
          }
        }
      }
    }
    node_def {
      name: "Const"
      op: "Const"
      attr {
        key: "_output_shapes"
        value {
          list {
            shape {
              dim {
                size: 2
              }
            }
          }
        }
      }
      attr {
        key: "dtype"
        value {
          type: DT_INT32
        }
      }
      attr {
        key: "value"
        value {
          tensor {
            dtype: DT_INT32
            tensor_shape {
              dim {
                size: 2
              }
            }
            tensor_content: "\000\000\000\000\377\000\000\000"
          }
        }
      }
    }
    node_def {
      name: "Cast_1"
      op: "Cast"
      input: "Const:output:0"
      attr {
        key: "DstT"
        value {
          type: DT_INT64
        }
      }
      attr {
        key: "SrcT"
        value {
          type: DT_INT32
        }
      }
      attr {
        key: "Truncate"
        value {
          b: false
        }
      }
      attr {
        key: "_output_shapes"
        value {
          list {
            shape {
              dim {
                size: 2
              }
            }
          }
        }
      }
    }
    node_def {
      name: "Const_1"
      op: "Const"
      attr {
        key: "_output_shapes"
        value {
          list {
            shape {
              dim {
                size: 2
              }
            }
          }
        }
      }
      attr {
        key: "dtype"
        value {
          type: DT_INT32
        }
      }
      attr {
        key: "value"
        value {
          tensor {
            dtype: DT_INT32
            tensor_shape {
              dim {
                size: 2
              }
            }
            tensor_content: "\000\000\000\000\001\000\000\000"
          }
        }
      }
    }
    node_def {
      name: "Cast_2"
      op: "Cast"
      input: "Const_1:output:0"
      attr {
        key: "DstT"
        value {
          type: DT_INT64
        }
      }
      attr {
        key: "SrcT"
        value {
          type: DT_INT32
        }
      }
      attr {
        key: "Truncate"
        value {
          b: false
        }
      }
      attr {
        key: "_output_shapes"
        value {
          list {
            shape {
              dim {
                size: 2
              }
            }
          }
        }
      }
    }
    node_def {
      name: "Const_2"
      op: "Const"
      attr {
        key: "_output_shapes"
        value {
          list {
            shape {
            }
          }
        }
      }
      attr {
        key: "dtype"
        value {
          type: DT_INT64
        }
      }
      attr {
        key: "value"
        value {
          tensor {
            dtype: DT_INT64
            tensor_shape {
            }
            int64_val: 0
          }
        }
      }
    }
    node_def {
      name: "key_value_init/LookupTableImportV2"
      op: "LookupTableImportV2"
      input: "key_value_init_lookuptableimportv2_hash_table"
      input: "Cast_1:y:0"
      input: "Cast_2:y:0"
      attr {
        key: "Tin"
        value {
          type: DT_INT64
        }
      }
      attr {
        key: "Tout"
        value {
          type: DT_INT64
        }
      }
      attr {
        key: "_output_shapes"
        value {
          list {
          }
        }
      }
    }
    node_def {
      name: "hash_table_Lookup/LookupTableFindV2"
      op: "LookupTableFindV2"
      input: "key_value_init_lookuptableimportv2_hash_table"
      input: "Cast:y:0"
      input: "Const_2:output:0"
      input: "^key_value_init/LookupTableImportV2"
      attr {
        key: "Tin"
        value {
          type: DT_INT64
        }
      }
      attr {
        key: "Tout"
        value {
          type: DT_INT64
        }
      }
      attr {
        key: "_output_shapes"
        value {
          list {
            shape {
              dim {
                size: -1
              }
              dim {
                size: -1
              }
              dim {
                size: 1
              }
            }
          }
        }
      }
    }
    node_def {
      name: "Identity"
      op: "Identity"
      input: "args_0"
      input: "^hash_table_Lookup/LookupTableFindV2"
      input: "^key_value_init/LookupTableImportV2"
      attr {
        key: "T"
        value {
          type: DT_UINT8
        }
      }
      attr {
        key: "_output_shapes"
        value {
          list {
            shape {
              dim {
                size: -1
              }
              dim {
                size: -1
              }
              dim {
                size: 3
              }
            }
          }
        }
      }
    }
    node_def {
      name: "Identity_1"
      op: "Identity"
      input: "hash_table_Lookup/LookupTableFindV2:values:0"
      input: "^hash_table_Lookup/LookupTableFindV2"
      input: "^key_value_init/LookupTableImportV2"
      attr {
        key: "T"
        value {
          type: DT_INT64
        }
      }
      attr {
        key: "_output_shapes"
        value {
          list {
            shape {
              dim {
                size: -1
              }
              dim {
                size: -1
              }
              dim {
                size: 1
              }
            }
          }
        }
      }
    }
    ret {
      key: "identity"
      value: "Identity:output:0"
    }
    ret {
      key: "identity_1"
      value: "Identity_1:output:0"
    }
    attr {
      key: "_input_shapes"
      value {
        list {
          shape {
            dim {
              size: -1
            }
            dim {
              size: -1
            }
            dim {
              size: 3
            }
          }
          shape {
            dim {
              size: -1
            }
            dim {
              size: -1
            }
            dim {
              size: 1
            }
          }
          shape {
            unknown_rank: true
          }
        }
      }
    }
    control_ret {
      key: "hash_table_Lookup/LookupTableFindV2"
      value: "hash_table_Lookup/LookupTableFindV2"
    }
    control_ret {
      key: "key_value_init/LookupTableImportV2"
      value: "key_value_init/LookupTableImportV2"
    }
    arg_attr {
      value {
        attr {
          key: "_user_specified_name"
          value {
            s: "args_0"
          }
        }
      }
    }
    arg_attr {
      key: 1
      value {
        attr {
          key: "_user_specified_name"
          value {
            s: "args_1"
          }
        }
      }
    }
    arg_attr {
      key: 2
      value {
      }
    }
  }
  function {
    signature {
      name: "__inference_Dataset_map__map_func_set_random_wrapper_2697"
      input_arg {
        name: "args_0"
        type: DT_UINT8
      }
      input_arg {
        name: "args_1"
        type: DT_INT64
      }
      output_arg {
        name: "identity"
        type: DT_UINT8
      }
      output_arg {
        name: "identity_1"
        type: DT_INT64
      }
    }
    node_def {
      name: "ReverseV2/axis"
      op: "Const"
      attr {
        key: "_output_shapes"
        value {
          list {
            shape {
              dim {
                size: 1
              }
            }
          }
        }
      }
      attr {
        key: "dtype"
        value {
          type: DT_INT32
        }
      }
      attr {
        key: "value"
        value {
          tensor {
            dtype: DT_INT32
            tensor_shape {
              dim {
                size: 1
              }
            }
            int_val: -1
          }
        }
      }
    }
    node_def {
      name: "ReverseV2"
      op: "ReverseV2"
      input: "args_0"
      input: "ReverseV2/axis:output:0"
      attr {
        key: "T"
        value {
          type: DT_UINT8
        }
      }
      attr {
        key: "Tidx"
        value {
          type: DT_INT32
        }
      }
      attr {
        key: "_output_shapes"
        value {
          list {
            shape {
              dim {
                size: -1
              }
              dim {
                size: -1
              }
              dim {
                size: 3
              }
            }
          }
        }
      }
    }
    node_def {
      name: "Identity"
      op: "Identity"
      input: "ReverseV2:output:0"
      attr {
        key: "T"
        value {
          type: DT_UINT8
        }
      }
      attr {
        key: "_output_shapes"
        value {
          list {
            shape {
              dim {
                size: -1
              }
              dim {
                size: -1
              }
              dim {
                size: 3
              }
            }
          }
        }
      }
    }
    node_def {
      name: "Identity_1"
      op: "Identity"
      input: "args_1"
      attr {
        key: "T"
        value {
          type: DT_INT64
        }
      }
      attr {
        key: "_output_shapes"
        value {
          list {
            shape {
              dim {
                size: -1
              }
              dim {
                size: -1
              }
              dim {
                size: 1
              }
            }
          }
        }
      }
    }
    ret {
      key: "identity"
      value: "Identity:output:0"
    }
    ret {
      key: "identity_1"
      value: "Identity_1:output:0"
    }
    attr {
      key: "_input_shapes"
      value {
        list {
          shape {
            dim {
              size: -1
            }
            dim {
              size: -1
            }
            dim {
              size: 3
            }
          }
          shape {
            dim {
              size: -1
            }
            dim {
              size: -1
            }
            dim {
              size: 1
            }
          }
        }
      }
    }
    arg_attr {
      value {
        attr {
          key: "_user_specified_name"
          value {
            s: "args_0"
          }
        }
      }
    }
    arg_attr {
      key: 1
      value {
        attr {
          key: "_user_specified_name"
          value {
            s: "args_1"
          }
        }
      }
    }
  }
  function {
    signature {
      name: "__inference_Dataset_map__map_func_set_random_wrapper_2725"
      input_arg {
        name: "args_0"
        type: DT_FLOAT
      }
      input_arg {
        name: "args_1"
        type: DT_FLOAT
      }
      output_arg {
        name: "identity"
        type: DT_FLOAT
      }
      output_arg {
        name: "identity_1"
        type: DT_FLOAT
      }
    }
    node_def {
      name: "resize/ExpandDims/dim"
      op: "Const"
      attr {
        key: "_output_shapes"
        value {
          list {
            shape {
            }
          }
        }
      }
      attr {
        key: "dtype"
        value {
          type: DT_INT32
        }
      }
      attr {
        key: "value"
        value {
          tensor {
            dtype: DT_INT32
            tensor_shape {
            }
            int_val: 0
          }
        }
      }
    }
    node_def {
      name: "resize/ExpandDims"
      op: "ExpandDims"
      input: "args_0"
      input: "resize/ExpandDims/dim:output:0"
      attr {
        key: "T"
        value {
          type: DT_FLOAT
        }
      }
      attr {
        key: "Tdim"
        value {
          type: DT_INT32
        }
      }
      attr {
        key: "_output_shapes"
        value {
          list {
            shape {
              dim {
                size: 1
              }
              dim {
                size: -1
              }
              dim {
                size: -1
              }
              dim {
                size: 3
              }
            }
          }
        }
      }
    }
    node_def {
      name: "resize/size"
      op: "Const"
      attr {
        key: "_output_shapes"
        value {
          list {
            shape {
              dim {
                size: 2
              }
            }
          }
        }
      }
      attr {
        key: "dtype"
        value {
          type: DT_INT32
        }
      }
      attr {
        key: "value"
        value {
          tensor {
            dtype: DT_INT32
            tensor_shape {
              dim {
                size: 2
              }
            }
            tensor_content: "\000\002\000\000\000\002\000\000"
          }
        }
      }
    }
    node_def {
      name: "resize/ResizeBilinear"
      op: "ResizeBilinear"
      input: "resize/ExpandDims:output:0"
      input: "resize/size:output:0"
      attr {
        key: "T"
        value {
          type: DT_FLOAT
        }
      }
      attr {
        key: "_output_shapes"
        value {
          list {
            shape {
              dim {
                size: 1
              }
              dim {
                size: 512
              }
              dim {
                size: 512
              }
              dim {
                size: 3
              }
            }
          }
        }
      }
      attr {
        key: "align_corners"
        value {
          b: false
        }
      }
      attr {
        key: "half_pixel_centers"
        value {
          b: false
        }
      }
    }
    node_def {
      name: "resize/Squeeze"
      op: "Squeeze"
      input: "resize/ResizeBilinear:resized_images:0"
      attr {
        key: "T"
        value {
          type: DT_FLOAT
        }
      }
      attr {
        key: "_output_shapes"
        value {
          list {
            shape {
              dim {
                size: 512
              }
              dim {
                size: 512
              }
              dim {
                size: 3
              }
            }
          }
        }
      }
      attr {
        key: "squeeze_dims"
        value {
          list {
            i: 0
          }
        }
      }
    }
    node_def {
      name: "resize_1/ExpandDims/dim"
      op: "Const"
      attr {
        key: "_output_shapes"
        value {
          list {
            shape {
            }
          }
        }
      }
      attr {
        key: "dtype"
        value {
          type: DT_INT32
        }
      }
      attr {
        key: "value"
        value {
          tensor {
            dtype: DT_INT32
            tensor_shape {
            }
            int_val: 0
          }
        }
      }
    }
    node_def {
      name: "resize_1/ExpandDims"
      op: "ExpandDims"
      input: "args_1"
      input: "resize_1/ExpandDims/dim:output:0"
      attr {
        key: "T"
        value {
          type: DT_FLOAT
        }
      }
      attr {
        key: "Tdim"
        value {
          type: DT_INT32
        }
      }
      attr {
        key: "_output_shapes"
        value {
          list {
            shape {
              dim {
                size: 1
              }
              dim {
                size: -1
              }
              dim {
                size: -1
              }
              dim {
                size: 1
              }
            }
          }
        }
      }
    }
    node_def {
      name: "resize_1/size"
      op: "Const"
      attr {
        key: "_output_shapes"
        value {
          list {
            shape {
              dim {
                size: 2
              }
            }
          }
        }
      }
      attr {
        key: "dtype"
        value {
          type: DT_INT32
        }
      }
      attr {
        key: "value"
        value {
          tensor {
            dtype: DT_INT32
            tensor_shape {
              dim {
                size: 2
              }
            }
            tensor_content: "\000\002\000\000\000\002\000\000"
          }
        }
      }
    }
    node_def {
      name: "resize_1/ResizeNearestNeighbor"
      op: "ResizeNearestNeighbor"
      input: "resize_1/ExpandDims:output:0"
      input: "resize_1/size:output:0"
      attr {
        key: "T"
        value {
          type: DT_FLOAT
        }
      }
      attr {
        key: "_output_shapes"
        value {
          list {
            shape {
              dim {
                size: 1
              }
              dim {
                size: 512
              }
              dim {
                size: 512
              }
              dim {
                size: 1
              }
            }
          }
        }
      }
      attr {
        key: "align_corners"
        value {
          b: false
        }
      }
      attr {
        key: "half_pixel_centers"
        value {
          b: false
        }
      }
    }
    node_def {
      name: "resize_1/Squeeze"
      op: "Squeeze"
      input: "resize_1/ResizeNearestNeighbor:resized_images:0"
      attr {
        key: "T"
        value {
          type: DT_FLOAT
        }
      }
      attr {
        key: "_output_shapes"
        value {
          list {
            shape {
              dim {
                size: 512
              }
              dim {
                size: 512
              }
              dim {
                size: 1
              }
            }
          }
        }
      }
      attr {
        key: "squeeze_dims"
        value {
          list {
            i: 0
          }
        }
      }
    }
    node_def {
      name: "Identity"
      op: "Identity"
      input: "resize/Squeeze:output:0"
      attr {
        key: "T"
        value {
          type: DT_FLOAT
        }
      }
      attr {
        key: "_output_shapes"
        value {
          list {
            shape {
              dim {
                size: 512
              }
              dim {
                size: 512
              }
              dim {
                size: 3
              }
            }
          }
        }
      }
    }
    node_def {
      name: "Identity_1"
      op: "Identity"
      input: "resize_1/Squeeze:output:0"
      attr {
        key: "T"
        value {
          type: DT_FLOAT
        }
      }
      attr {
        key: "_output_shapes"
        value {
          list {
            shape {
              dim {
                size: 512
              }
              dim {
                size: 512
              }
              dim {
                size: 1
              }
            }
          }
        }
      }
    }
    ret {
      key: "identity"
      value: "Identity:output:0"
    }
    ret {
      key: "identity_1"
      value: "Identity_1:output:0"
    }
    attr {
      key: "_input_shapes"
      value {
        list {
          shape {
            dim {
              size: -1
            }
            dim {
              size: -1
            }
            dim {
              size: 3
            }
          }
          shape {
            dim {
              size: -1
            }
            dim {
              size: -1
            }
            dim {
              size: 1
            }
          }
        }
      }
    }
    arg_attr {
      value {
        attr {
          key: "_user_specified_name"
          value {
            s: "args_0"
          }
        }
      }
    }
    arg_attr {
      key: 1
      value {
        attr {
          key: "_user_specified_name"
          value {
            s: "args_1"
          }
        }
      }
    }
  }
  function {
    signature {
      name: "__inference_Dataset_map__map_func_set_random_wrapper_2707"
      input_arg {
        name: "args_0"
        type: DT_UINT8
      }
      input_arg {
        name: "args_1"
        type: DT_INT64
      }
      output_arg {
        name: "identity"
        type: DT_FLOAT
      }
      output_arg {
        name: "identity_1"
        type: DT_FLOAT
      }
    }
    node_def {
      name: "Cast"
      op: "Cast"
      input: "args_0"
      attr {
        key: "DstT"
        value {
          type: DT_FLOAT
        }
      }
      attr {
        key: "SrcT"
        value {
          type: DT_UINT8
        }
      }
      attr {
        key: "Truncate"
        value {
          b: false
        }
      }
      attr {
        key: "_output_shapes"
        value {
          list {
            shape {
              dim {
                size: -1
              }
              dim {
                size: -1
              }
              dim {
                size: 3
              }
            }
          }
        }
      }
    }
    node_def {
      name: "Cast_1"
      op: "Cast"
      input: "args_1"
      attr {
        key: "DstT"
        value {
          type: DT_FLOAT
        }
      }
      attr {
        key: "SrcT"
        value {
          type: DT_INT64
        }
      }
      attr {
        key: "Truncate"
        value {
          b: false
        }
      }
      attr {
        key: "_output_shapes"
        value {
          list {
            shape {
              dim {
                size: -1
              }
              dim {
                size: -1
              }
              dim {
                size: 1
              }
            }
          }
        }
      }
    }
    node_def {
      name: "Identity"
      op: "Identity"
      input: "Cast:y:0"
      attr {
        key: "T"
        value {
          type: DT_FLOAT
        }
      }
      attr {
        key: "_output_shapes"
        value {
          list {
            shape {
              dim {
                size: -1
              }
              dim {
                size: -1
              }
              dim {
                size: 3
              }
            }
          }
        }
      }
    }
    node_def {
      name: "Identity_1"
      op: "Identity"
      input: "Cast_1:y:0"
      attr {
        key: "T"
        value {
          type: DT_FLOAT
        }
      }
      attr {
        key: "_output_shapes"
        value {
          list {
            shape {
              dim {
                size: -1
              }
              dim {
                size: -1
              }
              dim {
                size: 1
              }
            }
          }
        }
      }
    }
    ret {
      key: "identity"
      value: "Identity:output:0"
    }
    ret {
      key: "identity_1"
      value: "Identity_1:output:0"
    }
    attr {
      key: "_input_shapes"
      value {
        list {
          shape {
            dim {
              size: -1
            }
            dim {
              size: -1
            }
            dim {
              size: 3
            }
          }
          shape {
            dim {
              size: -1
            }
            dim {
              size: -1
            }
            dim {
              size: 1
            }
          }
        }
      }
    }
    arg_attr {
      value {
        attr {
          key: "_user_specified_name"
          value {
            s: "args_0"
          }
        }
      }
    }
    arg_attr {
      key: 1
      value {
        attr {
          key: "_user_specified_name"
          value {
            s: "args_1"
          }
        }
      }
    }
  }
  function {
    signature {
      name: "cond_3_true_2800"
      input_arg {
        name: "flip_up_down_control_dependency_cond_1_identity"
        type: DT_FLOAT
      }
      output_arg {
        name: "identity"
        type: DT_FLOAT
      }
    }
    node_def {
      name: "flip_up_down/control_dependency"
      op: "Identity"
      input: "flip_up_down_control_dependency_cond_1_identity"
      attr {
        key: "T"
        value {
          type: DT_FLOAT
        }
      }
      attr {
        key: "_class"
        value {
          list {
            s: "loc:@cond_1/Identity"
          }
        }
      }
      attr {
        key: "_output_shapes"
        value {
          list {
            shape {
              dim {
                size: 512
              }
              dim {
                size: 512
              }
              dim {
                size: 1
              }
            }
          }
        }
      }
    }
    node_def {
      name: "flip_up_down/ReverseV2/axis"
      op: "Const"
      attr {
        key: "_output_shapes"
        value {
          list {
            shape {
              dim {
                size: 1
              }
            }
          }
        }
      }
      attr {
        key: "dtype"
        value {
          type: DT_INT32
        }
      }
      attr {
        key: "value"
        value {
          tensor {
            dtype: DT_INT32
            tensor_shape {
              dim {
                size: 1
              }
            }
            int_val: 0
          }
        }
      }
    }
    node_def {
      name: "flip_up_down/ReverseV2"
      op: "ReverseV2"
      input: "flip_up_down/control_dependency:output:0"
      input: "flip_up_down/ReverseV2/axis:output:0"
      attr {
        key: "T"
        value {
          type: DT_FLOAT
        }
      }
      attr {
        key: "Tidx"
        value {
          type: DT_INT32
        }
      }
      attr {
        key: "_output_shapes"
        value {
          list {
            shape {
              dim {
                size: 512
              }
              dim {
                size: 512
              }
              dim {
                size: 1
              }
            }
          }
        }
      }
    }
    node_def {
      name: "Identity"
      op: "Identity"
      input: "flip_up_down/ReverseV2:output:0"
      attr {
        key: "T"
        value {
          type: DT_FLOAT
        }
      }
      attr {
        key: "_output_shapes"
        value {
          list {
            shape {
              dim {
                size: 512
              }
              dim {
                size: 512
              }
              dim {
                size: 1
              }
            }
          }
        }
      }
    }
    ret {
      key: "identity"
      value: "Identity:output:0"
    }
    attr {
      key: "_input_shapes"
      value {
        list {
          shape {
            dim {
              size: 512
            }
            dim {
              size: 512
            }
            dim {
              size: 1
            }
          }
        }
      }
    }
    arg_attr {
      value {
        attr {
          key: "_class"
          value {
            list {
              s: "loc:@cond_1/Identity"
            }
          }
        }
      }
    }
  }
  function {
    signature {
      name: "cond_3_false_2801"
      input_arg {
        name: "identity_cond_1_identity"
        type: DT_FLOAT
      }
      output_arg {
        name: "identity"
        type: DT_FLOAT
      }
    }
    node_def {
      name: "Identity"
      op: "Identity"
      input: "identity_cond_1_identity"
      attr {
        key: "T"
        value {
          type: DT_FLOAT
        }
      }
      attr {
        key: "_output_shapes"
        value {
          list {
            shape {
              dim {
                size: 512
              }
              dim {
                size: 512
              }
              dim {
                size: 1
              }
            }
          }
        }
      }
    }
    ret {
      key: "identity"
      value: "Identity:output:0"
    }
    attr {
      key: "_input_shapes"
      value {
        list {
          shape {
            dim {
              size: 512
            }
            dim {
              size: 512
            }
            dim {
              size: 1
            }
          }
        }
      }
    }
    arg_attr {
      value {
      }
    }
  }
  function {
    signature {
      name: "cond_5_true_2889"
      input_arg {
        name: "cropandresize_boxes_0_mul_2"
        type: DT_FLOAT
      }
      input_arg {
        name: "cropandresize_boxes_0_mul"
        type: DT_FLOAT
      }
      input_arg {
        name: "cropandresize_boxes_0_sub_1"
        type: DT_FLOAT
      }
      input_arg {
        name: "cropandresize_boxes_0_sub"
        type: DT_FLOAT
      }
      input_arg {
        name: "cropandresize_expanddims_1"
        type: DT_FLOAT
      }
      output_arg {
        name: "identity"
        type: DT_FLOAT
      }
    }
    node_def {
      name: "CropAndResize/boxes/0"
      op: "Pack"
      input: "cropandresize_boxes_0_mul_2"
      input: "cropandresize_boxes_0_mul"
      input: "cropandresize_boxes_0_sub_1"
      input: "cropandresize_boxes_0_sub"
      attr {
        key: "N"
        value {
          i: 4
        }
      }
      attr {
        key: "T"
        value {
          type: DT_FLOAT
        }
      }
      attr {
        key: "_output_shapes"
        value {
          list {
            shape {
              dim {
                size: 4
              }
            }
          }
        }
      }
      attr {
        key: "axis"
        value {
          i: 0
        }
      }
    }
    node_def {
      name: "CropAndResize/boxes"
      op: "Pack"
      input: "CropAndResize/boxes/0:output:0"
      attr {
        key: "N"
        value {
          i: 1
        }
      }
      attr {
        key: "T"
        value {
          type: DT_FLOAT
        }
      }
      attr {
        key: "_output_shapes"
        value {
          list {
            shape {
              dim {
                size: 1
              }
              dim {
                size: 4
              }
            }
          }
        }
      }
      attr {
        key: "axis"
        value {
          i: 0
        }
      }
    }
    node_def {
      name: "CropAndResize/box_ind"
      op: "Const"
      attr {
        key: "_output_shapes"
        value {
          list {
            shape {
              dim {
                size: 1
              }
            }
          }
        }
      }
      attr {
        key: "dtype"
        value {
          type: DT_INT32
        }
      }
      attr {
        key: "value"
        value {
          tensor {
            dtype: DT_INT32
            tensor_shape {
              dim {
                size: 1
              }
            }
            int_val: 0
          }
        }
      }
    }
    node_def {
      name: "CropAndResize/crop_size"
      op: "Const"
      attr {
        key: "_output_shapes"
        value {
          list {
            shape {
              dim {
                size: 2
              }
            }
          }
        }
      }
      attr {
        key: "dtype"
        value {
          type: DT_INT32
        }
      }
      attr {
        key: "value"
        value {
          tensor {
            dtype: DT_INT32
            tensor_shape {
              dim {
                size: 2
              }
            }
            tensor_content: "\000\002\000\000\000\002\000\000"
          }
        }
      }
    }
    node_def {
      name: "CropAndResize"
      op: "CropAndResize"
      input: "cropandresize_expanddims_1"
      input: "CropAndResize/boxes:output:0"
      input: "CropAndResize/box_ind:output:0"
      input: "CropAndResize/crop_size:output:0"
      attr {
        key: "T"
        value {
          type: DT_FLOAT
        }
      }
      attr {
        key: "_output_shapes"
        value {
          list {
            shape {
              dim {
                size: 1
              }
              dim {
                size: 512
              }
              dim {
                size: 512
              }
              dim {
                size: 1
              }
            }
          }
        }
      }
      attr {
        key: "extrapolation_value"
        value {
          f: 0.0
        }
      }
      attr {
        key: "method"
        value {
          s: "nearest"
        }
      }
    }
    node_def {
      name: "Identity"
      op: "Identity"
      input: "CropAndResize:crops:0"
      attr {
        key: "T"
        value {
          type: DT_FLOAT
        }
      }
      attr {
        key: "_output_shapes"
        value {
          list {
            shape {
              dim {
                size: 1
              }
              dim {
                size: 512
              }
              dim {
                size: 512
              }
              dim {
                size: 1
              }
            }
          }
        }
      }
    }
    ret {
      key: "identity"
      value: "Identity:output:0"
    }
    attr {
      key: "_input_shapes"
      value {
        list {
          shape {
          }
          shape {
          }
          shape {
          }
          shape {
          }
          shape {
            dim {
              size: 1
            }
            dim {
              size: 512
            }
            dim {
              size: 512
            }
            dim {
              size: 1
            }
          }
        }
      }
    }
    arg_attr {
      value {
      }
    }
    arg_attr {
      key: 1
      value {
      }
    }
    arg_attr {
      key: 2
      value {
      }
    }
    arg_attr {
      key: 3
      value {
      }
    }
    arg_attr {
      key: 4
      value {
      }
    }
  }
  function {
    signature {
      name: "__inference_Dataset_map__map_func_set_random_wrapper_2737"
      input_arg {
        name: "args_0"
        type: DT_FLOAT
      }
      input_arg {
        name: "args_1"
        type: DT_FLOAT
      }
      output_arg {
        name: "identity"
        type: DT_FLOAT
      }
      output_arg {
        name: "identity_1"
        type: DT_FLOAT
      }
    }
    node_def {
      name: "truediv/y"
      op: "Const"
      attr {
        key: "_output_shapes"
        value {
          list {
            shape {
            }
          }
        }
      }
      attr {
        key: "dtype"
        value {
          type: DT_FLOAT
        }
      }
      attr {
        key: "value"
        value {
          tensor {
            dtype: DT_FLOAT
            tensor_shape {
            }
            float_val: 127.5
          }
        }
      }
    }
    node_def {
      name: "truediv"
      op: "RealDiv"
      input: "args_0"
      input: "truediv/y:output:0"
      attr {
        key: "T"
        value {
          type: DT_FLOAT
        }
      }
      attr {
        key: "_output_shapes"
        value {
          list {
            shape {
              dim {
                size: 512
              }
              dim {
                size: 512
              }
              dim {
                size: 3
              }
            }
          }
        }
      }
    }
    node_def {
      name: "sub/y"
      op: "Const"
      attr {
        key: "_output_shapes"
        value {
          list {
            shape {
            }
          }
        }
      }
      attr {
        key: "dtype"
        value {
          type: DT_FLOAT
        }
      }
      attr {
        key: "value"
        value {
          tensor {
            dtype: DT_FLOAT
            tensor_shape {
            }
            float_val: 1.0
          }
        }
      }
    }
    node_def {
      name: "sub"
      op: "Sub"
      input: "truediv:z:0"
      input: "sub/y:output:0"
      attr {
        key: "T"
        value {
          type: DT_FLOAT
        }
      }
      attr {
        key: "_output_shapes"
        value {
          list {
            shape {
              dim {
                size: 512
              }
              dim {
                size: 512
              }
              dim {
                size: 3
              }
            }
          }
        }
      }
    }
    node_def {
      name: "Identity"
      op: "Identity"
      input: "sub:z:0"
      attr {
        key: "T"
        value {
          type: DT_FLOAT
        }
      }
      attr {
        key: "_output_shapes"
        value {
          list {
            shape {
              dim {
                size: 512
              }
              dim {
                size: 512
              }
              dim {
                size: 3
              }
            }
          }
        }
      }
    }
    node_def {
      name: "Identity_1"
      op: "Identity"
      input: "args_1"
      attr {
        key: "T"
        value {
          type: DT_FLOAT
        }
      }
      attr {
        key: "_output_shapes"
        value {
          list {
            shape {
              dim {
                size: 512
              }
              dim {
                size: 512
              }
              dim {
                size: 1
              }
            }
          }
        }
      }
    }
    ret {
      key: "identity"
      value: "Identity:output:0"
    }
    ret {
      key: "identity_1"
      value: "Identity_1:output:0"
    }
    attr {
      key: "_input_shapes"
      value {
        list {
          shape {
            dim {
              size: 512
            }
            dim {
              size: 512
            }
            dim {
              size: 3
            }
          }
          shape {
            dim {
              size: 512
            }
            dim {
              size: 512
            }
            dim {
              size: 1
            }
          }
        }
      }
    }
    arg_attr {
      value {
        attr {
          key: "_user_specified_name"
          value {
            s: "args_0"
          }
        }
      }
    }
    arg_attr {
      key: 1
      value {
        attr {
          key: "_user_specified_name"
          value {
            s: "args_1"
          }
        }
      }
    }
  }
  function {
    signature {
      name: "cond_4_false_2867"
      input_arg {
        name: "placeholder"
        type: DT_FLOAT
      }
      input_arg {
        name: "placeholder_1"
        type: DT_FLOAT
      }
      input_arg {
        name: "placeholder_2"
        type: DT_FLOAT
      }
      input_arg {
        name: "placeholder_3"
        type: DT_FLOAT
      }
      input_arg {
        name: "identity_expanddims"
        type: DT_FLOAT
      }
      output_arg {
        name: "identity"
        type: DT_FLOAT
      }
    }
    node_def {
      name: "Identity"
      op: "Identity"
      input: "identity_expanddims"
      attr {
        key: "T"
        value {
          type: DT_FLOAT
        }
      }
      attr {
        key: "_output_shapes"
        value {
          list {
            shape {
              dim {
                size: 1
              }
              dim {
                size: 512
              }
              dim {
                size: 512
              }
              dim {
                size: 3
              }
            }
          }
        }
      }
    }
    ret {
      key: "identity"
      value: "Identity:output:0"
    }
    attr {
      key: "_input_shapes"
      value {
        list {
          shape {
          }
          shape {
          }
          shape {
          }
          shape {
          }
          shape {
            dim {
              size: 1
            }
            dim {
              size: 512
            }
            dim {
              size: 512
            }
            dim {
              size: 3
            }
          }
        }
      }
    }
    arg_attr {
      value {
      }
    }
    arg_attr {
      key: 1
      value {
      }
    }
    arg_attr {
      key: 2
      value {
      }
    }
    arg_attr {
      key: 3
      value {
      }
    }
    arg_attr {
      key: 4
      value {
      }
    }
  }
  function {
    signature {
      name: "cond_true_2752"
      input_arg {
        name: "flip_left_right_control_dependency_args_0"
        type: DT_FLOAT
      }
      output_arg {
        name: "identity"
        type: DT_FLOAT
      }
    }
    node_def {
      name: "flip_left_right/control_dependency"
      op: "Identity"
      input: "flip_left_right_control_dependency_args_0"
      attr {
        key: "T"
        value {
          type: DT_FLOAT
        }
      }
      attr {
        key: "_class"
        value {
          list {
            s: "loc:@args_0"
          }
        }
      }
      attr {
        key: "_output_shapes"
        value {
          list {
            shape {
              dim {
                size: 512
              }
              dim {
                size: 512
              }
              dim {
                size: 3
              }
            }
          }
        }
      }
    }
    node_def {
      name: "flip_left_right/ReverseV2/axis"
      op: "Const"
      attr {
        key: "_output_shapes"
        value {
          list {
            shape {
              dim {
                size: 1
              }
            }
          }
        }
      }
      attr {
        key: "dtype"
        value {
          type: DT_INT32
        }
      }
      attr {
        key: "value"
        value {
          tensor {
            dtype: DT_INT32
            tensor_shape {
              dim {
                size: 1
              }
            }
            int_val: 1
          }
        }
      }
    }
    node_def {
      name: "flip_left_right/ReverseV2"
      op: "ReverseV2"
      input: "flip_left_right/control_dependency:output:0"
      input: "flip_left_right/ReverseV2/axis:output:0"
      attr {
        key: "T"
        value {
          type: DT_FLOAT
        }
      }
      attr {
        key: "Tidx"
        value {
          type: DT_INT32
        }
      }
      attr {
        key: "_output_shapes"
        value {
          list {
            shape {
              dim {
                size: 512
              }
              dim {
                size: 512
              }
              dim {
                size: 3
              }
            }
          }
        }
      }
    }
    node_def {
      name: "Identity"
      op: "Identity"
      input: "flip_left_right/ReverseV2:output:0"
      attr {
        key: "T"
        value {
          type: DT_FLOAT
        }
      }
      attr {
        key: "_output_shapes"
        value {
          list {
            shape {
              dim {
                size: 512
              }
              dim {
                size: 512
              }
              dim {
                size: 3
              }
            }
          }
        }
      }
    }
    ret {
      key: "identity"
      value: "Identity:output:0"
    }
    attr {
      key: "_input_shapes"
      value {
        list {
          shape {
            dim {
              size: 512
            }
            dim {
              size: 512
            }
            dim {
              size: 3
            }
          }
        }
      }
    }
    arg_attr {
      value {
        attr {
          key: "_class"
          value {
            list {
              s: "loc:@args_0"
            }
          }
        }
      }
    }
  }
}
versions {
  producer: 134
  min_consumer: 12
}
